dis.pth (torch, 216629 bytes, 13 tensors)

fc1.weight f4 [784, 10]
-0.11057778 -0.13204002 -0.06623166 -0.12951376 0.20092832 -0.30775073 -0.16983673 0.18312651
0.025026955 -0.26662597 0.13321456 -0.13265817 0.22164872 0.073930316 -0.0070854397 -0.10461929
-0.10748284 -0.018983938 -0.017661592 -0.103153646 0.05783973 -0.165264 -0.086854935 -0.195484
0.020723814 -0.2737986 0.24319774 0.21682023 0.23150715 -0.11950195 0.026593396 0.053342037
-0.04061847 0.1168659 0.08465505 -0.11666955 0.0185687 -0.16434234 0.10965273 0.20706631
0.04878123 -0.20058466 -0.08794802 0.20203198 -0.10619461 0.0803306 -0.17046957 -0.009661837
-0.15683697 -0.21913078 -0.09371257 -0.034602802 0.25155395 0.25268567 0.104936525 0.17869966
0.1297808 -0.06921721 0.12188886 0.026662314 -0.18434529 -0.039061945 0.13143446 -0.06453953
-0.020882782 0.054631963 0.09776963 -0.21410637 -0.13405588 0.16088091 0.21047752 -0.033739187
0.16904724 0.07324394 0.19318558 0.11815027 0.01893431 0.24004515 -0.12134329 0.013223988
0.09623825 0.14980459 -0.23201798 0.016563103 0.21019068 0.23661147 0.14268045 0.1895985
0.11459376 -0.18345994 0.048156388 -0.1152762 0.029527688 -0.17729178 0.006305544 -0.06574594
0.08480186 -0.15820089 0.07822968 0.09305366 0.21933357 0.22389622 0.048666768 -0.071236126
-0.19303419 -0.019252783 0.26585588 0.30981863 -0.05000562 0.090410255 -0.061112944 -0.013833938
-0.08737168 -0.04320407 -0.19984569 0.073671244 0.2103177 0.116261736 -0.13948408 0.18177563
0.34215304 0.35155863 -0.2500683 -0.033121593 0.11276615 0.03553708 -0.2564971 0.20354179
0.14986295 0.07841294 0.10933244 0.22862022 0.018726313 -0.003557875 -0.044028565 0.2584901
0.31098962 0.1790451 -0.06453843 0.18193911 0.17652316 -0.118938684 -0.24980484 -0.1600987
-0.085464686 -0.06319186 -0.25792888 -0.16666986 0.22245279 0.020953676 0.039385132 -0.14575571
0.03795076 0.06498511 0.11395773 0.1709369 0.070625946 -0.1280361 0.20503749 -0.10514884
-0.044846315 -0.07943735 -0.032871738 0.17270152 0.17489788 -0.044380922 -0.061514243 -0.08731692
0.21001135 0.09470167 0.22468063 0.036004726 0.30328327 0.1675407 -0.009212753 -0.13717169
0.07580778 0.17733547 0.0681684 0.07441471 0.28578573 -0.10896837 0.0996976 0.25553688
-0.23863412 -0.12480681 -0.112080775 -0.002119047 0.07326474 0.24631217 0.14326257 -0.13829799
0.34570688 0.15463884 -0.0533276 0.28021204 0.3020741 0.09025799 0.25179183 0.19655852
0.12932965 0.14617844 0.03634538 -0.11253018 0.010306712 0.20404784 0.09301996 -7.0789276e-05
-0.13656746 0.037605125 0.27541688 -0.026929535 -0.00051936094 -0.05816409 0.15868391 0.094314925
-0.10345217 -0.1787746 0.28933325 0.21404833 -0.28711975 -0.22029547 0.125126 0.166205
0.1492612 -0.08747662 0.1501244 0.07210818 -0.021096705 0.016712291 0.22124897 -0.08430647
-0.0096903285 -0.058024466 -0.16463935 0.29390866 0.33583304 -0.17689739 -0.17648932 0.14395232
0.11004468 0.21353304 0.17122385 0.17392474 0.032224245 0.033202674 -0.057943266 -0.23994742
-0.13111337 -0.22173792 0.2165217 0.248156 0.05731193 0.13354619 0.1683732 0.19605479
00000000: 9a76 e2bd 8035 07be 77a4 87bd 419f 04be
00000010: 27c0 4d3e 8191 9dbe aee9 2dbe 8485 3b3e
00000020: 5405 cd3c 3383 88be 6669 083e 8bd7 07be
00000030: e2f7 623e c768 973d fa2c e8bb a342 d6bd
00000040: f71f dcbd 3484 9bbc 0baf 90bc 3842 d3bd
00000050: 5ae9 6c3d f73a 29be 00e1 b1bd f52c 48be
00000060: fdc4 a93c 552f 8cbe d408 793e 1f06 5e3e
00000070: 3610 6d3e 70bd f4bd 65da d93c 2e7d 5a3d
00000080: 8e5f 26bd 6457 ef3d a05f ad3d 72f0 eebd
00000090: 631d 983c 5c49 28be 9c91 e03d 3109 543e
000000a0: d4ce 473d 1166 4dbe 171e b4bd 79e1 4e3e
000000b0: 8f7c d9bd 5f84 a43d 938f 2ebe ae4c 1ebc
000000c0: df99 20be d263 60be 60ec bfbd abbb 0dbd
000000d0: aecb 803e 0460 813e f6e8 d63d 0bfd 363e
000000e0: 42e5 043e c1c1 8dbd dea0 f93d ed6a da3c
000000f0: 03c5 3cbe 6bff 1fbd c196 063e 4d2d 84bd
00000100: 5e12 abbc c4c5 5f3d 723b c83d b33e 5bbe
00000110: f245 09be f7bd 243e 6b87 573e 1a32 0abd
00000120: b81a 2d3e eb00 963d 71d2 453e c5f8 f13d
00000130: 201c 9b3c 65ce 753e d582 f8bd 6da9 583c
00000140: 8f18 c53d 6066 193e 1f96 6dbe 58af 873c
00000150: 3a3c 573e 474a 723e d31a 123e 1c26 423e
00000160: 22b0 ea3d ecdc 3bbe a23f 453d ee15 ecbd
00000170: 0de4 f13c fa8b 35be bd9e ce3b cfa5 86bd
00000180: 99ac ad3d 6aff 21be e236 a03d eb92 be3d
00000190: fb98 603e 0d45 653e ce56 473d 3fe4 91bd
000001a0: c1aa 45be 03b8 9dbc 431e 883e 8ca0 9e3e
000001b0: b1d2 4cbd 0329 b93d 9151 7abd bea7 62bc
000001c0: ecef b2bd c0f6 30bd 59a4 4cbe f3e0 963d
000001d0: 865d 573e a21a ee3d ead4 0ebe 6423 3a3e
000001e0: af2e af3e 7eff b33e f408 80be 82aa 07bd
000001f0: f0f1 e63d 548f 113d 9753 83be 426d 503e
00000200: ac75 193e f796 a03d b0e9 df3d 6b1b 6a3e
00000210: ed67 993c 3d2b 69bb 4c57 34bd d058 843e
00000220: 083a 9f3e 9957 373e b92c 84bd 3f4e 3a3e
00000230: 7dc2 343e 2096 f3bd d7cc 7fbe eaf0 23be
00000240: 1c08 afbd bc6a 81bd 410f 84be 81ab 2abe
00000250: aaca 633e 0ba7 ab3c 4e52 213d fc40 15be
00000260: 4272 1b3d ea16 853d ac62 e93d 150a 2f3e
00000270: 56a4 903d e51b 03be 59f5 513e 4658 d7bd
00000280: c5b0 37bd 0db0 a2bd 84a4 06bd abd8 303e
00000290: 6e18 333e c5c8 35bd 5cf6 7bbd 37d3 b2bd
000002a0: 370d 573e f3f2 c13d ae12 663e b179 133d
000002b0: f247 9b3e ca8f 2b3e 16f1 16bc bc76 0cbe
000002c0: 1c41 9b3d 6e97 353e e09b 8b3d bd66 983d
000002d0: 8252 923e cf2a dfbd 412e cc3d bbd5 823e
000002e0: 815c 74be b69a ffbd 9b8a e5bd b6df 0abb
000002f0: d30b 963d 4239 7c3e 6cb3 123e fd9d 0dbe
00000300: 7e00 b13e a559 1e3e 0b6e 5abd f477 8f3e
00000310: 75a9 9a3e 2ed9 b83d dcea 803e a346 493e
00000320: fe6e 043e cdaf 153e e5de 143d 3976 e6bd
00000330: 7cdd 283c ebf1 503e 4081 be3d b474 94b8
00000340: 57d8 0bbe d507 1a3d 7103 8d3e 549b dcbc
00000350: b925 08ba 783d 6ebd 097e 223e 2f28 c13d
00000360: bbde d3bd b010 37be 7d23 943e 7c2f 5b3e
00000370: 5c01 93be 2395 61be 0821 003e a531 2a3e
00000380: eed7 183e f126 b3bd 36ba 193e 74ad 933d
00000390: ffd2 acbc 37e8 883c 178f 623e dfa8 acbd
000003a0: 2fc4 1ebc 10ab 6dbd 3897 28be 327b 963e
000003b0: 4ff2 ab3e 9724 35be 9eb9 34be 3d68 133e
000003c0: 1b5f e13d 68a8 5a3e 4e55 2f3e 5419 323e
000003d0: 92fd 033d 87ff 073d eb55 6dbd c7b4 75be
000003e0: 9542 06be 440f 63be ddb7 5d3e 9b1c 7e3e
000003f0: eabf 6a3d 55c0 083e 066a 2c3e 96c2 483e

fc1.bias f4 [784]
0.13274783 0.039848298 0.23573229 0.31733203 -0.19209781 0.003224139 0.22755833 0.27626836
0.22382958 0.29152465 -0.17060196 -0.0025075963 -0.16010033 -0.066080734 -0.21879777 -0.021975113
-0.20507854 0.19307028 -0.009898658 -0.05827971 0.14399458 0.20619094 0.15509194 0.08520875
0.06969653 0.04659651 -0.11454672 0.25229138 0.23442887 -0.2380455 0.13556851 0.10061727
-0.16289619 0.23716855 0.028546356 -0.15781137 -0.14049406 -0.068980165 -0.19381404 0.021592662
0.21911706 -0.011924318 -0.3274398 0.050553378 -0.24175486 -0.20587835 -0.054689344 0.1814094
-0.14127721 -0.24371938 -0.09011101 0.01759734 0.22869687 -0.22088 -0.07080901 0.20026663
0.042835843 0.026879542 0.28974155 -0.0047627925 0.24833728 -0.11144745 0.27240726 -0.19738433
0.08106357 -0.229465 0.010971273 -0.15973404 0.22314031 -0.037375793 -0.23052366 -0.1743497
-0.10985923 0.115060054 -0.19205244 -0.050043732 -0.12792704 -0.00349026 -0.030934032 0.053197503
0.27425915 0.01772535 -0.051958296 0.17628868 0.13618597 0.14207791 0.19056286 -0.15067317
-0.11147776 -0.15928419 -0.069009624 0.055532865 0.020407155 0.12689225 -0.17821297 -0.035855833
0.17272218 0.2210253 0.21508761 -0.124732114 0.22197014 0.14351593 0.0063939546 0.00781622
0.099161446 0.080794886 -0.22936894 0.018427517 0.06522528 0.09710527 0.2905762 -0.016841482
0.1911147 0.20968543 0.25814137 0.03323829 0.23936974 -0.15335861 0.16614176 -0.13230415
0.08717136 -0.042080596 0.050406273 -0.19082189 -0.12910528 -0.29217207 -0.023710301 0.27436724
-0.19851479 -0.14747763 -0.13269088 -0.17664632 0.14625967 0.19394222 -0.26280132 -0.23705244
0.09795437 -0.19460785 0.2304604 -0.2745399 0.28129658 -0.16450152 -0.2545635 0.10356999
-0.12753923 -0.14787288 0.0132962 -0.26711908 -0.060208485 0.15535434 0.07318609 0.04961916
0.11635014 0.10967305 0.18037188 -0.23742574 0.041631438 -0.1470687 0.24913836 0.011094338
-0.29532003 0.17362463 0.15461169 -0.07290713 -0.09461042 -0.18286668 0.23129961 0.17327929
-0.1459533 -0.16237499 -0.07660551 0.14217465 -0.08242503 -0.11622771 0.24129467 0.22254701
-0.30796552 -0.16194685 -0.28734338 -0.07924633 -0.034743223 0.21773344 0.15242158 -0.24733213
-0.2787354 0.11053383 -0.22535063 -0.1706958 -0.25665092 -0.067641385 0.07577792 0.043878287
0.17620812 0.02133757 -0.105296485 -0.04697706 0.09916277 0.034928765 0.1779866 0.0867376
0.16073164 0.19376467 0.052564703 -0.10514717 -0.02262528 -0.14255396 -0.1867626 0.19378857
0.24666007 0.21470042 0.097798854 -0.09053924 0.011672337 -0.08478694 0.11298535 -0.020910801
-0.2008381 0.19522828 0.11557408 -0.22109652 -0.07743086 0.14746232 0.07694356 -0.17768143
0.13920866 -0.13546075 -0.10085177 0.14683816 0.24122757 0.1166413 0.21683452 0.030587327
-0.06048579 0.075736694 -0.22345285 -0.13454841 -0.20335917 -0.10209597 -0.15228343 -0.30013373
0.169622 0.09287368 -0.25508687 0.2024861 0.16112848 -0.06330143 0.13854931 -0.04672706
0.28402987 -0.19573227 0.27421603 -0.20064938 0.030568441 -0.23235548 0.03749921 0.04734601
00000000: 0cef 073e f837 233d ce63 713e 5879 a23e
00000010: 4ab5 44be 144c 533b 0d05 693e 0c73 8d3e
00000020: 9533 653e b842 953e 48b2 2ebe 7c56 24bb
00000030: 57f1 23be 5655 87bd 860c 60be 2705 b4bc
00000040: 1c00 52be 37b4 453e fb2d 22bc b5b6 6ebd
00000050: 5173 133e b823 533e 6cd0 1e3e ed81 ae3d
00000060: 0ebd 8e3d fbdb 3e3d 7997 eabd 562c 813e
00000070: 1f0e 703e 33c2 73be 79d2 0a3e 6d10 ce3d
00000080: 42ce 26be 50dc 723e 0cda e93c 4e99 21be
00000090: addd 0fbe 7945 8dbd 3077 46be 18e3 b03c
000000a0: 3960 603e 375e 43bc 31a6 a7be 0f11 4f3d
000000b0: 968e 77be c6d1 52be ef01 60bd 63c3 393e
000000c0: f9aa 10be 9391 79be 1f8c b8bd 4c28 903c
000000d0: 832f 6a3e 5e2e 62be 5004 91bd b212 4d3e
000000e0: a374 2f3d 7c32 dc3c 0159 943e 3311 9cbb
000000f0: 214c 7e3e 903e e4bd f778 8b3e 1e1f 4abe
00000100: a804 a63d dff8 6abe dbc0 333c 5291 23be
00000110: e57e 643e 5c17 19bd 650e 6cbe ba88 32be
00000120: e0fd e0bd 9ba4 eb3d 65a9 44be a8fa 4cbd
00000130: 4eff 02be d9bc 64bb 5e69 fdbc a0e5 593d
00000140: b26b 8c3e c134 913c 39d2 54bd 0585 343e
00000150: 5674 0b3e df7c 113e e922 433e 114a 1abe
00000160: 744e e4bd 651b 23be eb54 8dbd 6e76 633d
00000170: e82c a73c 0bf0 013e 767d 36be 91dd 12bd
00000180: 15de 303e 7554 623e ed3f 5c3e 8d73 ffbd
00000190: 244c 633e d7f5 123e 6184 d13b 9a0f 003c
000001a0: 2815 cb3d ca77 a53d b1df 6abe 4ef5 963c
000001b0: d594 853d 21df c63d 67c6 943e 26f7 89bc
000001c0: 92b3 433e c7b7 563e 1b2b 843e e024 083d
000001d0: 571d 753e 0a0a 1dbe 1121 2a3e bd7a 07be
000001e0: e686 b23d b45c 2cbd cf76 4e3d d066 43be
000001f0: 2d34 04be 9497 95be 1b3c c2bc dd79 8c3e
00000200: 7647 4bbe 6004 17be 1ee0 07be c6e2 34be
00000210: 18c5 153e ca98 463e e58d 86be e0bd 72be
00000220: 4d9c c83d 4847 47be d0fd 6b3e 7e90 8cbe
00000230: 1b06 903e 1673 28be 2656 82be 811c d43d
00000240: a599 02be fd6b 17be 4ed8 593c d5c3 88be
00000250: 2c9d 76bd 3515 1f3e 97e2 953d 763d 4b3d
00000260: fb48 ee3d 449c e03d 68b3 383e bc1f 73be
00000270: ba85 2a3d 2d99 16be 201e 7f3e 07c5 353c
00000280: 3034 97be a8ca 313e 8752 1e3e 5550 95bd
00000290: 1cc3 c1bd 6741 3bbe ced9 6c3e 2070 313e
000002a0: c874 15be a145 26be 5ae3 9cbd 3b96 113e
000002b0: 74ce a8bd cb08 eebd f315 773e 5de3 633e
000002c0: a8ad 9dbe 65d5 25be ac1e 93be e64b a2bd
000002d0: e94e 0ebd 84f5 5e3e 6714 1c3e a244 7dbe
000002e0: 68b6 8ebe 905f e23d 51c2 66be e1ca 2ebe
000002f0: c067 83be 9187 8abd 7431 9b3d b8b9 333d
00000300: e76f 343e 21cc ae3c afa5 d7bd 056b 40bd
00000310: da15 cb3d 7711 0f3d 1f42 363e 7ca3 b13d
00000320: d696 243e 3f6a 463e 164e 573d 6657 d7bd
00000330: a758 b9bc aaf9 11be b23e 3fbe 8370 463e
00000340: 7594 7c3e 6dda 5b3e c44a c83d a36c b9bd
00000350: 543d 3f3c c6a4 adbd dd64 e73d 214d abbc
00000360: 81a8 4dbe ece9 473e 1ab2 ec3d 2067 62be
00000370: 1294 9ebd 5d00 173e 9694 9d3d 1ff2 35be
00000380: b78c 0e3e 39b6 0abe 5f8b cebd be5c 163e
00000390: 5c04 773e a2e1 ee3d de09 5e3e 4692 fa3c
000003a0: f3bf 77bd d71b 9b3d d3d0 64be 0fc7 09be
000003b0: 633d 50be b117 d1bd 30f0 1bbe 21ab 99be
000003c0: 64b1 2d3e 8e34 be3d bf9a 82be 8458 4f3e
000003d0: ddfe 243e 2ea4 81bd dfdf 0d3e e064 3fbd
000003e0: 5d6c 913e 0a6e 48be 0b66 8c3e 0877 4dbe
000003f0: ab6a fa3c 98ee 6dbe c698 193d e4ed 413d

net.0.weight f4 [32, 2, 3, 3]
0.017189601 0.020878036 0.024185492 -0.018082963 3.5512036e-05 -0.03360293 -0.016838815 -0.011512921
-0.020296467 -0.006290404 -0.00082445866 -0.06564673 0.019856106 -0.017975297 -0.019660883 0.010392815
-0.0055597136 -0.043440722 0.004148203 0.0041014156 -0.0099247545 0.004057039 -0.0023165953 -0.009540277
0.00269397 -0.009650134 0.0055712885 -0.054832786 0.0227316 0.0048049996 -0.08570613 0.014763203
-0.013057874 -0.047522772 -0.07670684 -0.032628693 -0.024033183 -0.035865884 0.03966056 -0.032018628
0.010088695 0.024147313 -0.03239489 0.014679427 0.014442924 -0.01598678 0.02340909 -0.035927035
0.033584524 -0.032220457 0.019517597 0.0026977914 0.011396762 -0.039511986 -0.0165421 -0.007084065
0.002190114 -0.027885977 -0.012662149 -0.04852749 0.04317019 0.024243576 0.010756 -0.015260728
-0.006075439 0.009108903 -0.011009184 -0.0031584955 0.011492807 0.00051508 -0.0064804046 0.01312198
0.0072749346 -0.008547387 0.010818875 0.014544185 0.009743186 0.017467441 -0.022627376 -0.0150505435
0.010507003 -0.020641098 0.061612893 0.045235194 -0.02772471 0.033661257 0.011642361 -0.010499688
0.0055936105 0.023307767 -0.0032481102 -0.00013736222 0.027143188 0.0011715441 0.0077671716 0.011217251
0.017831977 0.0038052537 -0.007254182 0.05954288 -0.09509039 -0.022043912 0.05634044 0.023427386
0.031801447 0.0239024 0.018188 0.033436783 0.01432399 -0.0013296868 -0.025723768 0.012583308
0.015441653 -0.007703173 -0.0138619365 -0.009286595 -0.04315835 0.07536667 0.005675105 0.0399572
-0.007792891 0.023944193 0.012587857 0.0046410207 -0.036442015 0.035414603 -0.04616206 0.019221352
0.011096652 0.008619593 0.054014713 -0.012287812 0.022352569 -0.013460479 -0.025122967 -0.022760307
0.011772998 -0.01150978 0.0058369585 0.016487611 0.010691085 -0.00616542 -0.02441847 0.0038986094
-0.024287393 0.036234047 -0.025556324 -0.01992213 0.040624853 -0.016938794 -0.026228948 0.051764898
-0.033625204 -0.003570921 -0.015064319 -0.0147716915 0.0072978255 0.0029832562 -0.006593657 -0.013532284
-0.0032680281 0.014429426 -0.011728617 -0.029421082 -0.00049356685 0.029599804 0.005433743 -0.035820868
-0.007698811 0.034906883 -0.012787486 -0.029277846 0.02280593 0.006601891 -0.052791566 0.01282711
-0.00029409447 -0.0065531433 -0.00095959136 0.019208362 0.01330096 0.007536772 -0.005281665 -0.035574112
-0.035894778 -0.0083174165 0.018898288 0.025551107 0.02860368 0.01887937 0.014999848 -0.02364169
-0.0071136896 0.02721447 -0.014699125 -0.02053385 0.005398224 -0.020982923 -0.007504225 -0.024520721
0.014123883 0.004442123 -0.03061835 0.039085206 -0.026779061 0.0034590033 0.023696445 -0.013749754
0.013976147 0.0007732321 -0.012093024 -0.004093835 -0.01013318 0.0013574337 -0.0060469816 -0.019295549
0.019732423 0.007589278 0.008663242 -0.011760079 -0.0073638186 -0.023116302 0.017676404 0.014568057
-0.009877309 -0.0077627557 0.048421916 -0.02557816 -0.08329069 -0.0075349775 0.017418688 -0.0068528126
0.016486727 -0.03803182 -0.041866165 -0.021502813 -0.06466652 0.035176337 0.034316484 0.025492668
0.019303199 0.0044276337 0.0012825171 0.018188173 -0.011721691 0.005770728 0.011210506 -0.0018102726
-0.005177601 0.003839838 0.00015382892 -0.014585586 0.010111824 -0.025092645 -0.0032097215 -0.04855055
00000000: 35d1 8c3c 6a08 ab3c a720 c63c b922 94bc
00000010: c2f2 1438 3aa3 09bd 8ef1 89bc b1a0 3cbc
00000020: c744 a6bc bc1f cebb 7c20 58ba cb71 86bd
00000030: 46a9 a23c ee40 93bc dc0f a1bc a046 2a3c
00000040: 422e b6bb e6ee 31bd a6ed 873b 2b65 863b
00000050: 709b 22bc e9f0 843b 05d2 17bb d24e 1cbc
00000060: 518d 303b 981b 1ebc 5b8f b63b 5898 60bd
00000070: 9f37 ba3c 4273 9d3b b286 afbd 5de1 713c
00000080: b1f0 55bc 3da7 42bd 7a18 9dbd aaa5 05bd
00000090: 3de1 c4bc 1be8 12bd 1d73 223d f725 03bd
000000a0: 0e4b 253c 96d0 c53c 81b0 04bd fb81 703c
000000b0: 04a2 6c3c b5f6 82bc 6bc4 bf3c 3a28 13bd
000000c0: ed8f 093d 99f9 03bd 5ee3 9f3c 6ecd 303b
000000d0: 7cb9 3a3c 52d7 21bd 4c83 87bc 7221 e8bb
000000e0: 0488 0f3b 2271 e4bc e774 4fbc c3c4 46bd
000000f0: 3ad3 303d 779a c63c ef39 303c 2208 7abc
00000100: 7a14 c7bb 823d 153c dd5f 34bc c3fe 4ebb
00000110: 544c 3c3c 6f06 073a 9359 d4bb 93fd 563c
00000120: 9362 ee3b 570a 0cbc a741 313c bc4a 6e3c
00000130: e2a1 1f3c e117 8f3c 0c5d b9bc 8e96 76bc
00000140: 9125 2c3c 8517 a9bc cd5d 7c3d 8a48 393d
00000150: ee1e e3bc 63e0 093d 9abf 3e3c e206 2cbc
00000160: 9b4a b73b eeef be3c 3fde 54bb e408 10b9
00000170: 645b de3c 7f8e 993a c283 fe3b 90c8 373c
00000180: 5e14 923c 9061 793b 7db4 edbb 3ce3 733d
00000190: c0be c2bd 6f95 b4bc 3cc5 663d caea bf3c
000001a0: 3c42 023d f7ce c33c 00ff 943c 02f5 083d
000001b0: 2baf 6a3c e348 aeba a7ba d2bc 382a 4e3c
000001c0: fdfe 7c3c e66a fcbb 2d1d 63bc cd26 18bc
000001d0: cfc6 30bd d759 9a3d 3bf6 b93b 29aa 233d
000001e0: 825b ffbb 9d26 c43c 4d3d 4e3c b413 983b
000001f0: 3944 15bd e70e 113d 6e14 3dbd 1976 9d3c
00000200: bbce 353c 3239 0d3c 883e 5d3d d252 49bc
00000210: bc1c b73c 5789 5cbc aece cdbc d373 babc
00000220: 88e3 403c 8493 3cbc f543 bf3b 0711 873c
00000230: a929 2f3c 4b07 cabb 3e09 c8bc d07f 7f3b
00000240: 5bf6 c6bc 276a 143d 7f5b d1bc bc33 a3bc
00000250: 3f66 263d 3ac3 8abc 17de d6bc 6e07 543d
00000260: 95ba 09bd 1d06 6abb 55d0 76bc f704 72bc
00000270: 9922 ef3b bc82 433b 9b0f d8bb 83b6 5dbc
00000280: 6a2c 56bb 6669 6c3c 6329 40bc 7b04 f1bc
00000290: b662 01ba 4a7b f23c 8a0d b23b e7b8 12bd
000002a0: 4f46 fcbb 85fa 0e3d 9b82 51bc 18d8 efbc
000002b0: 80d3 ba3c ad54 d83b f83b 58bd cc28 523c
000002c0: b130 9ab9 c0bb d6bb 168d 7bba db5a 9d3c
000002d0: 45ec 593c 07f7 f63b d111 adbb 29b6 11bd
000002e0: 6706 13bd c645 08bc 95d0 9a3c 8e50 d13c
000002f0: 4452 ea3c e9a8 9a3c ecc1 753c 38ac c1bc
00000300: f419 e9bb e1f0 de3c 99d4 70bc 9b36 a8bc
00000310: 96e3 b03b 61e4 abbc 00e6 f5bb aedf c8bc
00000320: dc67 673c 3b8f 913b 55d3 fabc cf17 203d
00000330: c35f dbbc 72b0 623b 0c1f c23c a646 61bc
00000340: 36fc 643c bab2 4a3a d221 46bc 9425 86bb
00000350: a305 26bc ebeb b13a c225 c6bb b311 9ebc
00000360: e4a5 a13c 7aaf f83b 45f0 0d3c 59ad 40bc
00000370: 304c f1bb 665e bdbc 1bce 903c dcae 6e3c
00000380: 70d4 21bc b75e febb 0f56 463d 4a89 d1bc
00000390: 4f94 aabd f9e7 f6bb a3b1 8e3c 8f8d e0bb
000003a0: 2c0f 873c 41c7 1bbd db7b 2bbd ab26 b0bc
000003b0: e16f 84bd 1015 103d 718f 0c3d 00d6 d03c
000003c0: be21 9e3c af15 913b 221a a83a 5dff 943c
000003d0: 560c 40bc 6018 bd3b 45ac 373c ab46 edba
000003e0: dda8 a9bb cba5 7b3b 234d 2139 62f8 6ebc
000003f0: 10ac 253c 178f cdbc 315a 52bb f1dc 46bd

net.1.weight f4 [32]
0.9667949 0.9292295 0.97040665 0.9528231 0.9678318 0.95604694 1.0084057 0.9342943
0.98138374 0.93686205 0.9490063 0.9386845 0.92791945 0.97253454 1.0090177 0.946456
0.95623714 0.9331012 0.96623325 1.0022266 0.9136335 0.93387985 1.0197997 0.9543726
0.99954045 0.93080145 0.9845059 0.9739736 0.96425813 0.96893597 0.9328215 0.9628955
00000000: df7f 773f fce1 6d3f 926c 783f 37ec 733f
00000010: d3c3 773f 7ebf 743f 7013 813f e92d 6f3f
00000020: f73b 7b3f 31d6 6f3f 14f2 723f a14d 703f
00000030: 218c 6d3f 06f8 783f 7e27 813f f14a 723f
00000040: f5cb 743f b8df 6e3f 105b 773f f648 803f
00000050: e3e3 693f c012 6f3f cc88 823f c351 743f
00000060: e2e1 7f3f 0149 6e3f 9408 7c3f 5556 793f
00000070: 9fd9 763f 300c 783f 64cd 6e3f 5280 763f

net.1.bias f4 [32]
-0.2709102 -0.34964597 -0.28177243 -0.19316593 -0.28608584 -0.19297099 -0.19500174 -0.28701612
-0.33833182 -0.2841502 -0.22245857 -0.17927834 -0.29566994 -0.21249253 -0.11064229 -0.28300935
-0.35084686 -0.39715397 -0.268971 -0.2938496 -0.39239642 -0.3340131 -0.27140218 -0.14825806
-0.35759625 -0.349799 -0.3039299 -0.20559806 -0.17714083 -0.18408787 -0.3077455 -0.3622886
00000000: beb4 8abe cc04 b3be 7a44 90be 4acd 45be
00000010: d879 92be 309a 45be 89ae 47be c7f3 92be
00000020: d439 adbe 237c 91be 2ecc 63be be94 37be
00000030: 0d62 97be a497 59be 6d98 e2bd 9ae6 90be
00000040: 33a2 b3be c457 cbbe 91b6 89be 7473 96be
00000050: 2fe8 c8be c403 abbe 3af5 8abe f6d0 17be
00000060: db16 b7be db18 b3be b39c 9bbe 4c88 52be
00000070: 6864 35be 8881 3cbe d190 9dbe e47d b9be

net.1.running_mean f4 [32]
0.03240037 0.014600194 0.007833356 0.021394089 -0.015450654 -0.04443392 0.03960625 -0.01440735
0.0070958436 0.020502342 -0.0032579936 0.0015794667 -0.004081312 -0.0026037632 0.0327734 0.009803896
0.0044264775 -0.011118561 0.016989492 -0.037287258 -0.0063105007 0.007876987 -0.008787204 0.031629954
-0.007518132 -0.004144257 -0.025335448 -0.00017536295 0.03173305 0.009359958 -0.0036309722 -0.025777083
00000000: 40b6 043d a735 6f3c 7a57 003c a842 af3c
00000010: bd24 7dbc 5800 36bd 2a3a 223d ce0c 6cbc
00000020: 4084 e83b 87f4 a73c 1084 55bb 1c06 cf3a
00000030: 87bc 85bb e6a3 2abb 673d 063d 85a0 203c
00000040: fc0b 913b a02a 36bc 8c2d 8b3c 86ba 18bd
00000050: 51c8 cebb 7a0e 013c 34f8 0fbc 698e 013d
00000060: aa5a f6bb 8ccc 87bb 498c cfbc a2e1 37b9
00000070: 84fa 013d 825a 193c 9bf5 6dbb 762a d3bc

net.1.running_var f4 [32]
0.0019906454 0.0011583458 0.002824636 0.0013986466 0.000890393 0.0020019722 0.0022021625 0.0010743523
0.00093358353 0.0010557661 0.0008000771 0.0011887414 0.0011368167 0.0029151633 0.0008841492 0.0005709173
0.001151145 0.001185216 0.0010371939 0.0016608239 0.0008165091 0.0017207094 0.00090669317 0.0016342364
0.0003353884 0.0016964348 0.0013598681 0.00096122397 0.0013208977 0.0013372775 0.0012144916 0.0012045938
00000000: 7d75 023b a3d3 973a 871d 393b cb52 b73a
00000010: 4369 693a 8533 033b 2852 103b 48d1 8c3a
00000020: bbbb 743a a261 8a3a 44bc 513a 8bcf 9b3a
00000030: 3d01 953a 530c 3f3b 40c6 673a 9da9 153a
00000040: 04e2 963a 4059 9b3a 74f2 873a 01b0 d93a
00000050: 000b 563a 6d89 e13a 26af 6d3a e033 d63a
00000060: 12d7 af39 e85a de3a 9a3d b23a a6fa 7b3a
00000070: f921 ad3a 9647 af3a 932f 9f3a 76e3 9d3a

net.4.weight f4 [128, 32, 3, 3]
-0.006771704 -0.0018221971 -0.020803964 0.0051874695 0.009069036 0.02134798 -0.020009499 -0.060459748
-0.025098758 0.024892613 0.025091281 0.0035373308 0.00932567 0.006176305 0.019516826 0.083846085
0.010169008 -0.05587758 -0.0016714677 0.033218578 -0.035111587 0.051715165 -0.012634395 -0.005260157
0.032229695 0.049364455 -0.0037801797 -0.024584353 -0.020900507 0.018750647 0.011194909 0.0150281675
0.00501274 -0.059637506 -0.107347704 -0.04145835 0.015579605 -0.026957994 -0.05532393 -0.030246187
-0.014413263 -0.001231955 -0.03218638 -0.010924733 0.0363088 0.0044860668 0.050223555 0.009969274
-0.023076372 -0.045 -0.012753033 -0.013109192 -0.00548401 -0.030337185 0.0009012213 0.047087945
0.03324251 -0.0950854 -0.056024924 0.008433116 0.0252278 -0.0067858305 -0.0065303026 0.045972995
0.00035038244 -0.020023094 -0.018971613 -0.006744739 -0.034250904 -0.020847557 -0.014917136 -0.01044876
-0.018208057 -0.05453834 -0.045505088 -0.020827327 -0.04076715 -0.03688703 0.0074473834 0.026832553
-0.0063930177 0.015261679 -0.016178505 -0.046302672 0.023268314 -0.015762597 -0.02598636 -0.036012642
0.013204778 -0.022408817 -0.019907873 0.015788365 0.022515826 0.053486533 0.026854215 0.022739567
-0.018949123 -0.042432614 -0.029373778 0.018689051 0.0084549915 -0.048123498 0.050811216 -0.002794904
0.0038745308 0.030182194 0.05089651 0.0083083855 0.04230388 -0.0071090744 -0.0146529395 0.026861336
-0.005803433 0.03135651 0.050017543 0.011546238 -0.0011494003 -0.016641276 -0.003181237 -0.011614825
-0.028200218 -0.02383469 0.033425827 -0.08076856 0.004277693 0.009426977 -0.03423373 -0.013730789
0.0076737916 -0.014208578 -0.004782929 -0.024435334 0.010828428 0.019523688 0.0003149362 -0.024776326
-0.022554576 -0.009682909 -0.04957587 0.0069828327 0.0062036207 -0.020046428 0.0037161633 -0.011232166
-0.0043350463 0.014528025 -0.03720094 -0.04168218 -0.04703952 0.03802307 -0.015401112 -0.036530104
0.0067585004 -0.02330702 0.008511109 -0.03186737 -0.023836939 -0.003439948 -0.006505681 -0.008034995
-0.0002756338 -0.0056572645 0.0109928455 -0.0682056 -0.0025064456 0.036997583 0.013299247 0.00031282217
0.0044105113 -0.033955272 -0.036398903 -0.007729116 -0.00056074554 -0.045727618 0.020264866 0.009754217
-0.0056862263 -0.023625351 0.015005839 -0.025820224 -0.01826321 0.026880147 -0.0057280455 -0.00922035
-0.010362883 0.008670876 -0.0071554384 -0.0049629183 -0.008121914 0.012154471 -0.0045404145 -0.033401262
0.011132825 0.014468084 0.022307863 0.004080713 -0.015391368 -0.020405354 0.024085298 -0.018225793
-0.050964065 0.010330057 -0.015670862 -0.053652067 -0.019076267 -0.012257223 0.007967468 0.008066855
0.0102539435 0.016804006 0.0004951063 -0.010131183 -0.0009967227 0.04185359 -0.00038587235 0.0067896615
0.0039071003 -0.00044286606 -0.049938466 -0.018698992 -0.0565365 -0.01096169 -0.02693857 -0.010388668
-0.03781485 -0.010015238 -0.055837374 -0.0688548 -0.015006179 -0.026491541 -0.011794374 -0.02850217
-0.00538934 0.03682238 0.038589545 0.0064403103 -0.01628834 -0.0044787265 -0.022197334 0.03611221
-0.008371489 -0.0037676673 -0.016003553 0.049384695 -0.028854623 -0.037292 -0.050237957 -0.02478768
0.01765192 -0.055200376 -0.02923376 -0.024537617 -0.01123055 -0.030300047 -0.042396653 -0.042083938
00000000: 2ce5 ddbb cad6 eeba 136d aabc a6fb a93b
00000010: 4b96 143c f5e1 ae3c f6ea a3bc a4a4 77bd
00000020: e99b cdbc 98eb cb3c 3b8c cd3c 90d2 673b
00000030: b2ca 183c 9a62 ca3b c0e1 9f3c 7fb7 ab3d
00000040: e99b 263c e4df 64bd 2615 dbba 3410 083d
00000050: 2bd1 0fbd 48d3 533d 7e00 4fbc 655d acbb
00000060: 4903 043d 6232 4a3d e4bc 77bb 2065 c9bc
00000070: 8a37 abbc f59a 993c da6a 373c b438 763c
00000080: e941 a43b 7546 74bd 1dd9 dbbd 3bd0 29bd
00000090: 9941 7f3c 03d7 dcbc 589b 62bd dac6 f7bc
000000a0: 9b25 6cbc 8d79 a1ba ded5 03bd a7fd 32bc
000000b0: 89b8 143d dbff 923b 37b7 4d3d 2a56 233c
000000c0: a90a bdbc ec51 38bd 19f2 50bc f0c7 56bc
000000d0: 36b3 b3bb b085 f8bc f03f 6c3a 4adf 403d
000000e0: 4c29 083d 22bc c2bd 647a 65bd 0d2b 0a3c
000000f0: 88aa ce3c ac5b debb 26fc d5bb 2e4e 3c3d
00000100: 89b3 b739 7907 a4bc 5b6a 9bbc f902 ddbb
00000110: ad4a 0cbd 7fc8 aabc 0167 74bc 4731 2bbc
00000120: 1029 95bc 9863 5fbd 8b63 3abd 129e aabc
00000130: 75fb 26bd db16 17bd 2e09 f43b f1cf db3c
00000140: 857c d1bb 1f0c 7a3c c988 84bc dfa7 3dbd
00000150: 319d be3c 9020 81bc 59e1 d4bc fe81 13bd
00000160: da58 583c b292 b7bc d615 a3bc 9a56 813c
00000170: 1c73 b83c b214 5b3d 5ffd db3c 5448 ba3c
00000180: 313b 9bbc d2cd 2dbd 47a1 f0bc c819 993c
00000190: ce86 0a3c 251d 45bd 6c1f 503d b52a 37bb
000001a0: d7eb 7d3b a640 f73c dc78 503d e51f 083c
000001b0: d546 2d3d 3df3 e8bb e212 70bc 4e0c dc3c
000001c0: b92a bebb af6f 003d 32df 4c3d 6f2c 3d3c
000001d0: 79a7 96ba 4953 88bc 4d7c 50bb 1b4c 3ebc
000001e0: 2504 e7bc f840 c3bc 85e9 083d fd69 a5bd
000001f0: e42b 8c3b 9b73 1a3c ab38 0cbd 1af7 60bc
00000200: 6e74 fb3b 18cb 68bc 1eba 9cbb 9c2c c8bc
00000210: b869 313c 24f0 9f3c 051e a539 b9f7 cabc
00000220: 60c4 b8bc 10a5 1ebc 1110 4bbd 3fd0 e43b
00000230: be47 cb3b 6838 a4bc e08a 733b 1e07 38bc
00000240: 010d 8ebb f406 6e3c 0360 18bd efba 2abd
00000250: 83ac 40bd 14be 1b3d f254 7cbc 97a0 15bd
00000260: 6976 dd3b 5dee bebc 2e72 0b3c 5c87 02bd
00000270: af45 c3bc c070 61bb 9c2d d5bb 36a5 03bc
00000280: f182 90b9 9360 b9bb 561b 343c 61af 8bbd
00000290: 2e43 24bb c78a 173d 16e5 593c 4802 a439
000002a0: 0d86 903b af14 0bbd 0417 15bd 8644 fdbb
000002b0: fffe 12ba e24c 3bbd 8102 a63c 27d0 1f3c
000002c0: 8653 babb f489 c1bc 0ddb 753c ef84 d3bc
000002d0: ba9c 95bc c133 dc3c 54b2 bbbb f310 17bc
000002e0: 15c9 29bc 4a10 0e3c 2b78 eabb fa9f a2bb
000002f0: c711 05bc 8c23 473c c2c7 94bb c3cf 08bd
00000300: 7466 363c 8b0b 6d3c fbbe b63c 80b7 853b
00000310: 142c 7cbc 2129 a7bc 884e c53c 424e 95bc
00000320: b2bf 50bd 663f 293c 2e60 80bc 45c2 5bbd
00000330: d545 9cbc 85d2 48bc fc89 023c d82a 043c
00000340: 2800 283c 8ea8 893c 05ca 013a 43fd 25bc
00000350: 77a4 82ba ac6e 2b3d e94e cab9 cf7b de3b
00000360: 2207 803b 7a30 e8b9 478c 4cbd a12e 99bc
00000370: d192 67bd a998 33bc 47ae dcbc 3b35 2abc
00000380: bfe3 1abd f416 24bc bbb5 64bd bf03 8dbd
00000390: 7adc 75bc ca04 d9bc 313d 41bc 627d e9bc
000003a0: 1099 b0bb 10d3 163d 1210 1e3d 3d09 d33b
000003b0: 206f 85bc 48c2 92bb 2fd7 b5bc 66ea 133d
000003c0: 9228 09bc f8ea 76bb e219 83bc 9b47 4a3d
000003d0: 8860 ecbc 7fbf 18bd 51c6 4dbd 880f cbbc
000003e0: c29a 903c ca19 62bd a37b efbc 1d03 c9bc
000003f0: 5700 38bc ce37 f8bc 1da8 2dbd 3560 2cbd

net.5.weight f4 [128]
1.030125 1.0380849 1.0116652 1.017966 1.0837567 0.9933479 1.0403209 1.0432141
1.021318 1.0371093 1.0137116 1.026157 0.9232552 0.9675503 1.1157656 1.003576
1.0557324 0.9797129 1.0089192 1.008012 1.0949359 1.0777142 1.0385188 1.0351694
1.0237565 1.0189915 1.1109874 1.0119832 0.97907275 1.0129493 1.0014695 1.05551
0.9974189 1.0376757 1.0132065 1.0547838 1.0152762 0.9726628 1.1396848 1.0647017
1.0218979 1.0071354 1.1148741 1.0132406 0.99072444 0.988074 1.0202775 0.99714154
1.0501753 1.0658405 1.0210401 1.0187113 1.0374528 0.97225285 1.0158846 1.0138472
0.9946407 1.0412343 1.0219662 1.0174378 1.0090481 1.0513804 1.0773989 0.99965584
1.0061398 1.078293 0.99501103 1.048763 1.0340884 1.0548697 1.0433038 1.0351477
0.9802862 1.03465 1.1096154 1.0502872 1.0688196 1.10291 1.0405293 1.0088894
0.9675227 1.0191418 0.9923817 1.1333438 1.0563613 1.0375851 1.0323869 0.9937721
0.981802 0.9959435 0.9445044 1.0650394 0.98450005 1.0052309 1.0100836 1.0710318
0.9645569 0.9933041 0.989425 1.0951829 1.0975928 1.0554596 1.0186375 1.0375324
0.9982929 1.0305386 1.0555841 1.0363858 1.0377057 1.0315628 1.0676676 1.0086457
1.04478 1.0075889 1.0969645 1.0307173 0.9921851 1.0076289 0.975022 1.0209051
1.040524 1.0387818 1.0204644 1.0271853 1.0051755 1.0445232 0.9771816 1.0297787
00000000: 23db 833f f7df 843f 3f7e 813f b64c 823f
00000010: 8ab8 8a3f 0c4c 7e3f 3c29 853f 0a88 853f
00000020: 8cba 823f ffbf 843f 4dc1 813f 1d59 833f
00000030: 745a 6c3f 60b1 773f 68d1 8e3f 2e75 803f
00000040: 3d22 873f 77ce 7a3f 4424 813f 8a06 813f
00000050: dc26 8c3f 8af2 893f 2fee 843f 6e80 843f
00000060: 740a 833f 506e 823f d634 8e3f aa88 813f
00000070: 83a4 7a3f 53a8 813f 2730 803f f41a 873f
00000080: d856 7f3f 8fd2 843f c0b0 813f 2803 873f
00000090: 92f4 813f 6e00 793f 31e1 913f 2548 883f
000000a0: 8dcd 823f d0e9 803f 32b4 8e3f deb1 813f
000000b0: 1ea0 7d3f 6bf2 7c3f 7498 823f ab44 7f3f
000000c0: 256c 863f 766d 883f 71b1 823f 2265 823f
000000d0: 41cb 843f 90e5 783f 8208 823f bfc5 813f
000000e0: c6a0 7e3f 2a47 853f cacf 823f 673b 823f
000000f0: 7d28 813f a293 863f 35e8 893f 72e9 7f3f
00000100: 30c9 803f 8105 8a3f 0bb9 7e3f de3d 863f
00000110: 025d 843f f805 873f fb8a 853f b87f 843f
00000120: 09f4 7a3f 696f 843f e107 8e3f d06f 863f
00000130: 15cf 883f 282c 8d3f 1030 853f 4a23 813f
00000140: 91af 773f 3d73 823f ba0c 7e3f 6911 913f
00000150: d936 873f 97cf 843f 4125 843f d967 7e3f
00000160: 6057 7b3f 27f6 7e3f 0acb 713f 3653 883f
00000170: 3208 7c3f 68ab 803f 6b4a 813f 9217 893f
00000180: 33ed 763f 2d49 7e3f f54a 7d3f f42e 8c3f
00000190: ec7d 8c3f 4d19 873f b762 823f ddcd 843f
000001a0: 2090 7f3f b0e8 833f 611d 873f 4aa8 843f
000001b0: 8ad3 843f 400a 843f 55a9 883f 4d1b 813f
000001c0: 5abb 853f acf8 803f 5569 8c3f 8bee 833f
000001d0: d8ff 7d3f fcf9 803f 0b9b 793f 05ad 823f
000001e0: e42f 853f cdf6 843f 949e 823f cf7a 833f
000001f0: 97a9 803f f0b2 853f 9328 7a3f cacf 833f

net.5.bias f4 [128]
-0.022612061 -0.19705144 -0.025213499 -0.15305549 0.02503883 -0.10439273 -0.02671685 -0.11455445
-0.11514627 -0.117912754 -0.12815157 -0.14400093 -0.15006581 -0.15593116 -0.14813547 -0.19108579
-0.16000317 -0.13756637 -0.17376712 -0.1329107 -0.018833162 -0.03637169 -0.12802795 -0.14188856
-0.046805333 -0.1740667 -0.18601918 -0.052651998 -0.13387094 -0.049319822 -0.12200044 -0.12276537
-0.15953368 -0.18595092 -0.14631537 -0.15229096 -0.030392205 -0.13950865 -0.22200449 -0.1190337
-0.07130267 -0.03769805 -0.0136203 -0.01699171 -0.15539463 -0.18071431 -0.16125241 -0.08049748
-0.019629015 -0.1493694 -0.030063579 -0.17762986 -0.17082012 -0.12248548 -0.041593604 -0.18204346
-0.09250678 -0.13513555 -0.05701637 -0.17218535 -0.17562403 -0.049881328 -0.15636191 -0.13702334
-0.057843465 -0.013114219 -0.19559988 -0.11426458 -0.17073204 -0.16824763 -0.21283743 -0.17801401
-0.14406985 -0.15826017 -0.17595123 -0.18566215 0.021679418 -0.051545613 -0.17150609 -0.15851977
-0.14374857 -0.03233237 -0.14014149 -0.035255495 -0.1603531 -0.14490066 -0.106852055 -0.0107124625
-0.13531813 -0.06881316 -0.14339587 -0.15150312 -0.056074936 -0.08107836 -0.122725114 -0.18592967
-0.14833958 -0.1656767 -0.0869594 -0.21126589 -0.1942781 -0.14272258 -0.1298391 -0.13678712
-0.1303184 -0.20184611 -0.17307639 -0.085592836 -0.16453095 -0.14902076 -0.025027312 -0.14135638
-0.03384076 -0.15896694 -0.2257485 -0.11829364 -0.045754038 -0.007808428 -0.17429687 -0.0077474667
-0.08723893 0.009200018 -0.08256218 -0.042370994 -0.15760678 -0.07332113 -0.104861036 0.01970057
00000000: ee3c b9bc dac7 49be 8a8c cebc 94ba 1cbe
00000010: 3b1e cd3c dbcb d5bd 4cdd dabc 869b eabd
00000020: cfd1 ebbd 3e7c f1bd 2a3a 03be fb74 13be
00000030: daaa 19be 6bac 1fbe d3b0 17be feab 43be
00000040: dfd7 23be 33de 0cbe 02f0 31be be19 08be
00000050: 0148 9abc 7bfa 14bd c219 03be 3c4b 11be
00000060: f3b6 3fbd 8a3e 32be d07b 3ebe 9fa9 57bd
00000070: 7715 09be 9503 4abd 5edb f9bd 696c fbbd
00000080: cc5c 23be eb69 3ebe b2d3 15be 29f2 1bbe
00000090: 13f9 f8bc 5bdb 0ebe 2555 63be f1c7 f3bd
000000a0: 2207 92bd 4569 1abd ae27 5fbc 3332 8bbc
000000b0: c51f 1fbe 2c0d 39be 5a1f 25be dddb a4bd
000000c0: 07cd a0bc 4bf4 18be e547 f6bc 9ae4 35be
000000d0: 78eb 2ebe abd9 fabd 0e5e 2abd 9a69 3abe
000000e0: 3274 bdbd f960 0abe ff89 69bd 5b51 30be
000000f0: c9d6 33be 5d50 4cbd 561d 20be d94f 0cbe
00000100: 45ed 6cbd 05dd 56bc 564b 48be 8c03 eabd
00000110: 61d4 2ebe 1b49 2cbe 0ef2 59be 4e49 36be
00000120: 0c87 13be f40e 22be 8f2c 34be 381e 3ebe
00000130: 0999 b13c 7e21 53bd 4b9f 2fbe 0253 22be
00000140: d332 13be f26e 04bd 4081 0fbe 1168 10bd
00000150: 9a33 24be d760 14be 40d5 dabd 5383 2fbc
00000160: d690 0abe eaed 8cbd 5ed6 12be a223 1bbe
00000170: d5ae 65bd 690c a6bd 4e57 fbbd 5964 3ebe
00000180: 55e6 17be 27a7 29be c517 b2bd 1656 58be
00000190: d7f0 46be de25 12be 8bf4 04be ec11 0cbe
000001a0: 3072 05be bfb0 4ebe f03a 31be 4c4b afbd
000001b0: cd7a 28be e698 18be 1406 cdbc babf 10be
000001c0: 9c9c 0abd 3bc8 22be 9d2a 67be f043 f2bd
000001d0: 9668 3bbd d7dd ffbb e17a 32be 76de fdbb
000001e0: 53aa b2bd acbb 163c 5c16 a9bd 358d 2dbd
000001f0: ac63 21be 6329 96bd 62c1 d6bd 1763 a13c

net.5.running_mean f4 [128]
-0.25345585 -0.19481707 -0.26496398 -0.23924051 -0.17349006 -0.23767349 -0.0547288 -0.06207259
-0.11819298 -0.06675732 -0.1405883 -0.15125623 0.10105994 -0.07604974 -0.094875954 -0.051638167
-0.24235809 -0.068044186 -0.17172304 -0.17969774 -0.28264645 -0.3361466 0.13931483 -0.037581563
-0.121641695 0.11608761 -0.28760642 -0.13682173 -0.10398516 -0.18567069 -0.14143936 0.28512865
-0.0098844655 -0.23897393 -0.21933578 -0.118176736 -0.3551194 -0.19343188 -0.17794336 -0.26750436
-0.058489345 -0.22815621 -0.07627716 -0.053980157 0.039744426 -0.097740375 -0.19777516 0.09595144
-0.30950186 -0.18680765 -0.16605237 -0.19393298 0.019259717 -0.04039825 -0.24809831 -0.19020298
-0.37786075 -0.21735312 0.041759532 0.059590694 -0.15183234 -0.23695502 -0.42804953 -0.07556869
-0.016820712 -0.3876335 0.049096223 -0.38598847 0.11477966 -0.41509008 -0.23233394 -0.08711377
0.06255412 -0.11640394 -0.32947573 -0.0652962 -0.44444457 -0.24204865 -0.2246463 -0.19115324
-0.042573694 -0.083227314 -0.013131316 -0.38994345 -0.17429364 -0.2133155 0.16765349 -0.12774038
-0.19508214 -0.0516768 0.084710814 -0.15856011 -0.08508744 0.4779435 -0.042366818 -0.25305536
-0.13665849 -0.053110644 0.52227706 -0.18036625 -0.17768453 -0.12275584 0.094215445 -0.038784202
-0.07591694 -0.025982706 -0.18944256 -0.2128827 -0.1908649 -0.103203125 -0.31240177 -0.05270435
-0.06648959 -0.09009828 -0.34767672 -0.12558755 -0.20277198 -0.23996347 -0.046517503 -0.21568796
0.08836849 -0.48754093 -0.16101739 -0.2909417 -0.20417064 -0.17126535 0.20777372 -0.47638857
00000000: f7c4 81be 207e 47be 5ca9 87be 77fb 74be
00000010: 61a7 31be ae60 73be 4e2b 60bd d43f 7ebd
00000020: 290f f2bd 10b8 88bd 61f6 0fbe eae2 1abe
00000030: 84f8 ce3d f7bf 9bbd 534e c2bd 8b82 53bd
00000040: b82c 78be c05a 8bbd 2ad8 2fbe af02 38be
00000050: 09b7 90be 681b acbe 8ca8 0e3e 20ef 19bd
00000060: 481f f9bd 57bf ed3d 2641 93be ff1a 0cbe
00000070: 2cf6 d4bd 7520 3ebe 7bd5 10be 62fc 913e
00000080: 74f2 21bc 95b5 74be 8f99 60be a506 f2bd
00000090: 36d2 b5be 0213 46be c936 36be 55f6 88be
000000a0: 8692 6fbd c8a1 69be 3337 9cbd 4c1a 5dbd
000000b0: 0dcb 223d 1b2c c8bd 9285 4abe 3082 c43d
000000c0: 0777 9ebe 814a 3fbe a209 2abe 5e96 46be
000000d0: 8ec6 9d3c a378 25bd 7c0d 7ebe 92c4 42be
000000e0: f776 c1be d191 5ebe 0b0c 2b3d 5f15 743d
000000f0: f079 1bbe 56a4 72be 4f29 dbbe c2c3 9abd
00000100: 97cb 89bc e677 c6be 1f19 493d 48a0 c5be
00000110: 9911 eb3d b086 d4be f3e8 6dbe b468 b2bd
00000120: 601c 803d 3065 eebd 0bb1 a8be 04ba 85bd
00000130: 3d8e e3be 9adb 77be ae09 66be adbd 43be
00000140: c161 2ebd 1573 aabd bb24 57bc aba6 c7be
00000150: 087a 32be 616f 5abe 5bad 2b3e 60ce 02be
00000160: 9dc3 47be 0dab 53bd dd7c ad3d 955d 22be
00000170: 5342 aebd 03b5 f43e d488 2dbd 7990 81be
00000180: 34f0 0bbe 8c8a 59bd f3b3 053f eeb1 38be
00000190: eff2 35be 6a67 fbbd 07f4 c03d 2fdc 1ebd
000001a0: 577a 9bbd afd9 d4bc 3bfd 41be ecfd 59be
000001b0: 1772 43be 295c d3bd 20f3 9fbe 84e0 57bd
000001c0: b22b 88bd 7285 b8bd af02 b2be 069a 00be
000001d0: 75a3 4fbe fcb8 75be 2389 3ebd 4edd 5cbe
000001e0: 8afa b43d f79e f9be bee1 24be 4ff6 94be
000001f0: 1c12 51be 2f60 2fbe a2c2 543e 34e9 f3be

net.5.running_var f4 [128]
0.18141344 0.19075151 0.19121583 0.18223664 0.2319461 0.17589968 0.16000333 0.17121351
0.17461671 0.20159177 0.21682374 0.17773814 0.15526545 0.1827544 0.2688218 0.17190543
0.23360433 0.19037792 0.20075385 0.18742646 0.20818782 0.40496927 0.20721993 0.17717619
0.12965824 0.14761785 0.3629441 0.1237726 0.17768037 0.13890533 0.1774263 0.15477403
0.1872457 0.20314549 0.22710279 0.14961703 0.21392643 0.20756705 0.26375875 0.33489057
0.18298014 0.13319345 0.18529572 0.17134583 0.18330298 0.18360475 0.18790309 0.15840106
0.16929723 0.20001648 0.13338336 0.16105334 0.20744024 0.14586073 0.16757603 0.22829247
0.13243708 0.17204094 0.14157884 0.2746159 0.2599531 0.15108845 0.33509046 0.15404482
0.15714394 0.37422535 0.15444918 0.25624484 0.19881284 0.23434179 0.19391084 0.17969447
0.14923297 0.1660169 0.33891982 0.15538077 0.27258706 0.25810033 0.1960677 0.26019704
0.17278808 0.16954154 0.20984985 0.3875436 0.176355 0.20292515 0.1568396 0.13087682
0.20502934 0.18464172 0.14955571 0.2613045 0.23156707 0.25100145 0.14312904 0.22329442
0.15063614 0.24883702 0.35452858 0.22152653 0.24695694 0.22545862 0.1519018 0.14474584
0.13678628 0.18653908 0.16108568 0.15335624 0.18125433 0.2135155 0.19246435 0.18365051
0.13090536 0.21381767 0.41196957 0.19204621 0.1977622 0.31302878 0.14113721 0.2539485
0.19337405 0.32297468 0.16185547 0.16519634 0.17458642 0.15994994 0.20164266 0.4836747
00000000: 72c4 393e 5d54 433e 15ce 433e 3e9c 3a3e
00000010: 4783 6d3e 0c1f 343e ead7 233e 9852 2f3e
00000020: b9ce 323e 136e 4e3e 0b07 5e3e fd00 363e
00000030: e8fd 1e3e f823 3b3e 03a3 893e fa07 303e
00000040: f935 6f3e 6ef2 423e 6b92 4d3e b9ec 3f3e
00000050: 302f 553e 2258 cf3e 7631 543e ad6d 353e
00000060: 21c5 043e 2229 173e cfd3 b93e 7d7c fd3d
00000070: d8f1 353e 333d 0e3e 3daf 353e 157d 1e3e
00000080: 56bd 3f3e 5f05 503e a28d 683e 3535 193e
00000090: 880f 5b3e 758c 543e 630b 873e c776 ab3e
000000a0: 255f 3b3e dd63 083e 29be 3d3e 4875 2f3e
000000b0: c7b3 3b3e e202 3c3e ab69 403e e333 223e
000000c0: 415c 2d3e 1fd1 4c3e a695 083e 2beb 243e
000000d0: 376b 543e 845c 153e 0d99 2b3e 80c5 693e
000000e0: 969d 073e 802b 303e 0bfa 103e 759a 8c3e
000000f0: 9318 853e eeb6 1a3e fa90 ab3e edbd 1d3e
00000100: 57ea 203e 779a bf3e ed27 1e3e 8632 833e
00000110: 9895 4b3e 4bf7 6f3e 9090 463e d401 383e
00000120: 87d0 183e 5600 2a3e e686 ad3e 231c 1f3e
00000130: 8890 8b3e ba25 843e f9c5 483e 8c38 853e
00000140: 5cef 303e 4c9c 2d3e e1e2 563e 1d6c c63e
00000150: 6896 343e 9ccb 4f3e 8f9a 203e 9304 063e
00000160: 36f3 513e b812 3d3e 2225 193e b4c9 853e
00000170: eb1f 6d3e 4383 803e 6b90 123e 4ba7 643e
00000180: 5c40 1a3e 22cf 7e3e c584 b53e dad7 623e
00000190: 48e2 7c3e a0de 663e 258c 1b3e 4138 143e
000001a0: b411 0c3e 1a04 3f3e a5f3 243e 6b09 1d3e
000001b0: bc9a 393e cfa3 5a3e 6015 453e e10e 3c3e
000001c0: 0e0c 063e 05f3 5a3e aded d23e c3a7 443e
000001d0: 2d82 4a3e 4f45 a03e 4686 103e 8a05 823e
000001e0: d903 463e f05c a53e 71bd 253e 3b29 293e
000001f0: c8c6 323e ebc9 233e 6a7b 4e3e 36a4 f73e

net.9.weight f4 [1, 6272]
0.025461666 0.022241883 0.02771372 0.032402337 0.017780716 0.025741022 0.016577842 0.018624377
0.010088773 0.009441435 -0.006833436 0.0071941377 0.0164525 0.014703651 0.0039197877 0.015050702
0.009612622 -0.029500846 -0.028526044 0.015708879 0.015256665 0.02757965 0.0025617296 -0.00018575082
-0.023436567 0.009766163 0.025521787 0.01084164 0.0028323417 0.017224396 0.0014724953 -0.022523802
0.012408749 0.015734248 0.025273236 0.04074403 0.02217712 -0.013558147 -0.028695166 0.007210317
-0.0033985581 0.030746097 0.028881956 0.027169477 0.038015414 0.012926945 0.058814142 0.022739382
0.012934086 -0.049796823 -0.04484082 -0.040557005 -0.050810214 -0.032317705 -0.03340934 -0.03791434
-0.022794645 -0.03548076 0.041999947 0.023148635 0.012846044 -0.019625345 -0.042324107 -0.049578134
0.011317734 -0.007854 -0.004736741 0.02682051 0.02669071 -0.019371271 -0.042718157 0.022184154
0.015180908 0.017812246 0.032526467 -0.014046968 -0.043215215 -0.039107334 0.036052622 0.03099862
0.007432187 0.031039111 0.046265252 -0.047025923 -0.02573569 -0.006036844 -0.0032145274 0.028001586
0.023294743 -0.012045167 -0.026346153 -0.050980337 -0.061780114 -0.036207303 -0.0061874604 -0.018116705
-0.026920423 -0.031029867 0.002710126 0.003093868 0.0128844315 0.0015773925 -0.0030873073 0.0019686688
0.0035353594 0.0028919892 -0.005237176 0.0068959175 0.0044867015 0.02273579 -0.00089369464 -0.01743197
0.0010371732 -0.010964555 -0.00013439896 0.02427751 0.012320258 -0.010354579 -0.012979829 -0.003855057
0.014893802 0.009947642 0.06283791 0.006492482 0.029484821 -0.02645323 0.004919467 0.01707774
-0.02464259 0.014778893 -0.0018775803 0.01215228 0.0030144483 0.009693169 0.0013465894 0.00812088
0.03336564 0.007422229 0.010621126 0.020842051 0.003594012 0.0053892336 -0.025311397 -0.025837341
0.01737044 0.008699069 -0.009069699 -0.037486315 -0.019604085 -0.02765543 -0.03488787 -0.031164823
-0.026494475 -0.042544674 -0.028077396 -0.010702263 -0.0072541395 0.008361646 -0.012703353 0.021459179
-0.010738418 -0.028422352 -0.024636736 -0.0021134743 0.008374325 0.05088854 0.012509227 -0.005864234
-0.018095197 -0.028672293 0.0008376333 -0.0075267637 -0.017586032 0.0050867843 -0.028642455 -0.028853413
-0.013624164 -0.016405884 0.0064303074 0.049744274 0.016552193 -0.018981582 -0.024629999 0.00592489
0.034594215 0.023381494 0.060657255 -0.0029576176 -0.010660934 -0.026008036 -0.02233359 -0.02178085
-0.002872579 0.08485041 -0.0071826293 -0.02097257 -0.018643027 0.017837659 0.009711704 0.014861618
0.021159513 0.019288285 0.006211831 0.020994777 0.014165302 0.034058932 -0.00343229 0.026920184
0.058027923 0.018300686 0.0023869385 0.040332794 0.050374012 -0.005338916 -0.021171728 -0.0151489945
0.0119802 0.006417586 0.02124911 0.03089485 0.009353836 -0.08372815 0.005802129 0.0016558646
0.013951395 0.03897341 0.0034962175 -0.028639562 -0.01999613 0.04353252 0.042060275 0.0034603993
0.016681187 -0.0066461004 0.01687486 0.00036914827 -0.00028564272 0.012053258 -0.028642105 0.023967896
0.014310502 0.009641794 0.010809367 0.016636921 0.0071297693 0.0038112032 -0.0024151225 -0.0076102377
-0.036244586 0.004000085 -0.031776547 -0.027346142 0.002215087 0.0021003995 0.006112454 0.045597762
00000000: fc94 d03c 9c34 b63c e207 e33c 50b8 043d
00000010: dda8 913c d6de d23c 41ce 873c 2692 983c
00000020: 624b 253c 40b0 1a3c 04eb dfbb cdbc eb3b
00000030: 65c7 863c 95e7 703c 9071 803b 3897 763c
00000040: 427e 1d3c c2ab f1bc 73af e9bc e8af 803c
00000050: 17f7 793c b8ee e13c b1e2 273b 1bc6 42b9
00000060: 0bfe bfbc 4202 203c 1113 d13c 22a1 313c
00000070: cf9e 393b 2d1a 8d3c be00 c13a d683 b8bc
00000080: 114e 4b3c 1ce5 803c d109 cf3c 36e3 263d
00000090: cbac b53c fd22 5ebc 2012 ebbc 8644 ec3b
000000a0: 58ba 5ebb 3ddf fb3c da99 ec3c 8692 de3c
000000b0: 0db6 1b3d 8acb 533c 19e7 703d f147 ba3c
000000c0: 7de9 533c c1f7 4bbd 02ab 37bd 1a1f 26bd
000000d0: 5f1e 50bd 925f 04bd 3bd8 08bd 114c 1bbd
000000e0: d6bb babc 4654 11bd 2308 2c3d 35a2 bd3c
000000f0: 3778 523c 55c5 a0bc 0b5c 2dbd 7112 4bbd
00000100: 046e 393c 10ae 00bc aa36 9bbb b0b6 db3c
00000110: 7aa6 da3c 80b0 9ebc 3cf9 2ebd 8bbb b53c
00000120: 58b9 783c fdea 913c 793a 053d 4125 66bc
00000130: 7002 31bd 032f 20bd eaab 133d d1f0 fd3c
00000140: b489 f33b bc45 fe3c a280 3d3d 419e 40bd
00000150: a7d3 d2bc b8d0 c5bb d2aa 52bb 9563 e53c
00000160: 9ed4 be3c 1859 45bc e3d3 d7bc c2d0 50bd
00000170: 250d 7dbd 1c4e 14bd 2ec0 cabb 7c69 94bc
00000180: 3888 dcbc 5932 febc 5f9c 313b 7ec2 4a3b
00000190: 3919 533c 82c0 ce3a 6c54 4abb c804 013b
000001a0: 7db1 673b 8787 3d3b 9e9c abbb 26f7 e13b
000001b0: 2e05 933b 6840 ba3c d546 6aba 7ecd 8ebc
000001c0: c2f1 873a ada4 33bc 72ed 0cb9 a1e1 c63c
000001d0: e8da 493c 41a6 29bc 59a9 54bc 20a5 7cbb
000001e0: 2205 743c 6ffb 223c 2ab1 803d e3be d43b
000001f0: 278a f13c 72b4 d8bc 7b33 a13b 9ee6 8b3c
00000200: 42df c9bc 2c23 723c 2419 f6ba 5b1a 473c
00000210: 0d8e 453b 19d0 1e3c 0b80 b03a 710d 053c
00000220: 69aa 083d 2b36 f33b 3b04 2e3c f3bc aa3c
00000230: 8489 6b3b 2b98 b03b d959 cfbc d5a8 d3bc
00000240: 744c 8e3c 8a86 0e3c 1399 14bc 408b 19bd
00000250: bf98 a0bc a48d e2bc 95e6 0ebd 5f4d ffbc
00000260: f10a d9bc 5343 2ebd 9102 e6bc 8b58 2fbc
00000270: 22b4 edbb 49ff 083c b921 50bc 29cb af3c
00000280: 31f0 2fbc fed5 e8bc fbd2 c9bc 3782 0abb
00000290: 7734 093c 8070 503d 80f3 4c3c c328 c0bb
000002a0: 613c 94bc 28e2 eabc 9f94 5b3a 12a3 f6bb
000002b0: 9510 90bc 0aaf a63b 95a3 eabc fe5d ecbc
000002c0: e337 5fbc a265 86bc 54b5 d23b a7c0 4b3d
000002d0: 7798 873c 437f 9bbc dac4 c9bc 9425 c23b
000002e0: aab2 0d3d 8c8a bf3c be73 783d 97d4 41bb
000002f0: 33ab 2ebc ce0e d5bc eff4 b6bc c16d b2bc
00000300: e141 3cbb 0dc6 ad3d 435c ebbb abce abbc
00000310: 43b9 98bc 4820 923c d71d 1f3c 257e 733c
00000320: b756 ad3c 7702 9e3c 9d8c cb3b 3dfd ab3c
00000330: 9515 683c 6181 0b3d 45f0 60bb b887 dc3c
00000340: b0ae 6d3d 52eb 953c 2f6e 1c3b 0034 253d
00000350: fb54 4e3d 13f2 aebb 5570 adbc 7d33 78bc
00000360: 9a48 443c 9d4a d23b 9d12 ae3c 3217 fd3c
00000370: d540 193c aa79 abbd c91f be3b 9909 d93a
00000380: 6494 643c 95a2 1f3d cc20 653b 849d eabc
00000390: edce a3bc 284f 323d 6547 2c3d dec7 623b
000003a0: fca6 883c 88c7 d9bb 253d 8a3c 3e8a c139
000003b0: 51c2 95b9 077b 453c d9a2 eabc 5258 c43c
000003c0: 9976 6a3c 9df8 1d3c c519 313c 274a 883c
000003d0: d7a0 e93b 61c5 793b 0847 1ebb 4d5f f9bb
000003e0: 3475 14bd 2513 833b 2028 02bd 0405 e0bc
000003f0: fe2a 113b dba6 093b fb4a c83b b8c4 3a3d
