dis.pth (torch, 216629 bytes, 13 tensors)

fc1.weight f4 [784, 10]
-0.048444424 -0.082733564 -0.05960779 -0.08192721 0.19262986 -0.26124525 -0.1251749 0.19448031
0.017764444 -0.27068174 0.14420193 -0.11034758 0.19228567 0.07883381 0.034454238 -0.02463102
-0.026712965 0.012878596 0.09174197 -0.0071086665 0.05694452 -0.18533498 -0.085058294 -0.19245327
-0.021427538 -0.2515538 0.17835347 0.17198822 0.15674882 -0.14814559 0.022127653 0.0032716414
-0.024928808 0.09035976 0.08727123 -0.05594173 0.008751786 -0.18811554 0.105703644 0.1853337
0.10358017 -0.12842688 -0.06470247 0.2022255 -0.08564425 0.07062073 -0.11889328 0.008317605
-0.14534165 -0.19019476 -0.051129285 -0.032344524 0.28282863 0.23006994 0.11896974 0.2321204
0.16066824 -0.057519995 0.16160393 0.101140276 -0.17811057 -0.06665547 0.075802855 -0.078713074
-0.022473894 0.07010217 0.09726272 -0.23538509 -0.16694427 0.13525884 0.23560421 -0.08245424
0.1819348 0.04900399 0.20618087 0.18595412 0.0444124 0.19886024 -0.05182133 0.040401015
0.11484161 0.17422476 -0.2421413 0.05029476 0.21632451 0.2064348 0.15500008 0.19055574
0.060080793 -0.18622664 0.100127615 -0.1352568 0.025967715 -0.21545178 0.017569585 -0.014827514
0.073157705 -0.19553389 0.07845497 0.107071556 0.22518153 0.2411203 0.06859428 -0.03428121
-0.11895369 -0.06291554 0.18228053 0.30456936 -0.08143552 0.09569259 4.4229815e-05 -0.020463794
-0.05907425 -0.017336585 -0.17648068 0.12498509 0.20844318 0.07786194 -0.14186184 0.19196846
0.30895758 0.3778352 -0.23139568 -0.04585916 0.10229919 0.018592112 -0.22594902 0.24771667
0.1668629 0.08950272 0.14449765 0.25052354 0.015482611 -0.035675872 -0.036517803 0.33215848
0.30122453 0.14036313 -0.023044823 0.22477524 0.20055434 -0.10206076 -0.23528141 -0.15852246
-0.058590796 -0.11883343 -0.24635512 -0.123519234 0.19380361 0.028832445 0.09268802 -0.10286072
0.03416974 0.03680514 0.13515946 0.20834745 0.08504743 -0.16773912 0.17419627 -0.06796544
-0.026329985 -0.06563083 -0.045670684 0.19651781 0.19874687 -0.014451796 -0.0152277695 -0.07963083
0.19155131 0.14976549 0.20129131 0.013391521 0.2593256 0.17064328 -0.029528184 -0.07064267
-0.00151615 0.1559717 0.08870831 0.090156585 0.2907271 -0.037537597 0.115967855 0.22804514
-0.17323036 -0.13884428 -0.07002701 0.04608551 0.039479896 0.22816306 0.1736325 -0.15550216
0.33101055 0.18156326 -0.07263019 0.3194731 0.32760218 0.10351252 0.28331512 0.24303883
0.07765838 0.106833644 0.03621463 -0.08888326 -0.034407713 0.17653395 0.15641731 -0.018317834
-0.09744765 0.039143763 0.22049858 -0.013571355 0.006906905 -0.060855083 0.12147671 0.12888353
-0.08788501 -0.16923405 0.27971864 0.2253953 -0.17262226 -0.2815065 0.07636452 0.14816768
0.1151997 -0.13579106 0.10162292 0.041867774 -0.006533972 0.052147638 0.23395768 -0.09353058
0.0052869176 -0.08604819 -0.1272353 0.31382117 0.35574907 -0.18627055 -0.11888394 0.18555285
0.15276228 0.166975 0.17394291 0.18311027 0.048837274 0.064364836 -0.02126895 -0.21578202
-0.090297535 -0.17551601 0.25610626 0.18675843 0.096645996 0.08867441 0.13063939 0.26899484
00000000: a96d 46bd 3770 a9bd 4c27 74bd 74c9 a7bd
00000010: c340 453e f0c1 85be d92d 00be d925 473e
00000020: bd86 913c cc96 8abe aca9 133e e9fd e1bd
00000030: 89e6 443e 9f73 a13d e31f 0d3d fec6 c9bc
00000040: 26d5 dabc bf00 533c 37e3 bb3d d1ef e8bb
00000050: a83e 693d 74c8 3dbe 0b33 aebd 7812 45be
00000060: ce88 afbc a9cb 80be 4ba2 363e ae1d 303e
00000070: c382 203e 7ab3 17be 0d45 b53c 0969 563b
00000080: 8037 ccbc 8a0e b93d 42bb b23d 2823 65bd
00000090: a763 0f3c 5ca1 40be 277b d83d 1ec8 3d3e
000000a0: d721 d43d 5682 03be bb82 84bd 3414 4f3e
000000b0: 4166 afbd 9aa1 903d 527e f3bd 9046 083c
000000c0: 71d4 14be 6ac2 42be f16c 51bd b17b 04bd
000000d0: eace 903e 7497 6b3e 68a6 f33d f8b0 6d3e
000000e0: 3786 243e 169a 6bbd 807b 253e a222 cf3d
000000f0: 9e62 36be aa82 88bd 873e 9b3d 5234 a1bd
00000100: 2c1b b8bc ba91 8f3d ad31 c73d ca08 71be
00000110: 70f3 2abe 4b81 0a3e 3b42 713e c5dd a8bd
00000120: 1e4d 3a3e 68b8 483d 1421 533e c26a 3e3e
00000130: c7e9 353d 05a2 4b3e 9a42 54bd 897b 253d
00000140: 1432 eb3d fa67 323e e4f3 77be e101 4e3d
00000150: 2c84 5d3e a563 533e 57b8 1e3e 0b21 433e
00000160: 4717 763d 32b2 3ebe b50f cd3d c280 0abe
00000170: 3fba d43c 649f 5cbe 17ee 8f3c 1aef 72bc
00000180: b5d3 953d 093a 48be 00ad a03d 5548 db3d
00000190: fd95 663e 3de8 763e 287b 8c3d 746a 0cbd
000001a0: fe9d f3bd ddd9 80bd bfa7 3a3e 84f0 9b3e
000001b0: aac7 a6bd 7afa c33d 6783 3938 b0a3 a7bc
000001c0: d7f7 71bd 7405 8ebc 5ab7 34be 2ff8 ff3d
000001d0: 2172 553e 1576 9f3d 3b44 11be 6193 443e
000001e0: b02f 9e3e 9e73 c13e fdf2 6cbe d1d6 3bbd
000001f0: 3d82 d13d 7c4e 983c 2e5f 67be 70a9 7d3e
00000200: 1cde 2a3e 344d b73d 31f7 133e 9f44 803e
00000210: c7aa 7d3c dd20 12bd b193 15bd ad10 aa3e
00000220: 1a3a 9a3e 5abb 0f3e 7fc8 bcbc 7b2b 663e
00000230: 1e5e 4d3e 3b05 d1bd 9ced 70be b653 22be
00000240: e7fc 6fbd f15e f3bd 8444 7cbe a7f7 fcbd
00000250: 7474 463e 0532 ec3c 37d3 bd3d a4a8 d2bd
00000260: 92f5 0b3d fdc0 163d 3e67 0a3e 0959 553e
00000270: 592d ae3d cec3 2bbe 8260 323e 7731 8bbd
00000280: fbb1 d7bc 7569 86bd 2f11 3bbd f73b 493e
00000290: 4d84 4b3e 3ac7 6cbc e57d 79bc 7d15 a3bd
000002a0: 0726 443e 205c 193e 4f1f 4e3e 1c68 5b3c
000002b0: 53c6 843e 1dbd 2e3e 17e5 f1bc 1bad 90bd
000002c0: 8db9 c6ba 0cb7 1f3e b4ac b53d 04a4 b83d
000002d0: 2fda 943e 06c1 19bd 8e80 ed3d aa84 693e
000002e0: 4d63 31be 322d 0ebe 526a 8fbd 29c4 3c3d
000002f0: acb5 213d 94a3 693e b8cc 313e f53b 1fbe
00000300: 377a a93e b8eb 393e 23bf 94bd fa91 a33e
00000310: 79bb a73e 5ffe d33d ae0e 913e 2cdf 783e
00000320: 5b0b 9f3d 99cb da3d cb55 143d 6d08 b6bd
00000330: 1aef 0cbd 51c5 343e dc2b 203e 480f 96bc
00000340: a292 c7bd 3655 203d 61ca 613e 635a 5ebc
00000350: 5253 e23b 2e43 79bd c8c8 f83d 0bfa 033e
00000360: 0efd b3bd b14b 2dbe 4837 8f3e 07ce 663e
00000370: e4c3 30be 9f21 90be 0065 9c3d 45b9 173e
00000380: d2ed eb3d d00c 0bbe ad1f d03d 8b7d 2b3d
00000390: ee1a d6bb c398 553d 9a92 6f3e f68c bfbd
000003a0: e13d ad3b 093a b0bd f849 02be 2bad a03e
000003b0: be24 b63e b5bd 3ebe 6c79 f3bd 9101 3e3e
000003c0: b76d 1c3e 7ffb 2a3e 171e 323e 4281 3b3e
000003d0: 9809 483d b6d1 833d 393c aebc f6f5 5cbe
000003e0: eaed b8bd 78ba 33be 5c20 833e 9a3d 3f3e
000003f0: 56ee c53d ee9a b53d 55c6 053e b1b9 893e

fc1.bias f4 [784]
0.16393982 0.17341033 0.1560209 0.3029931 -0.13327707 0.07756979 0.18654732 0.3077752
0.21631767 0.29667753 -0.16408883 0.017321918 -0.1417587 -0.029985538 -0.1940985 -0.016362015
-0.16042854 0.17066216 0.01873713 -0.028683484 0.11156401 0.19846758 0.11976109 0.124151625
0.09712554 0.101424865 -0.12155581 0.22480412 0.2668971 -0.2134761 0.10756648 0.14149047
-0.12702514 0.18491796 0.008444497 -0.16458926 -0.18821755 -0.056453727 -0.19361378 -0.03221381
0.18042226 0.017054858 -0.29103193 0.08582821 -0.2567296 -0.17281398 -0.09116431 0.19587411
-0.16992754 -0.18662788 -0.12043622 0.00481506 0.16981828 -0.17137727 -0.033609215 0.20311816
0.015568954 0.029041413 0.26264107 0.020135304 0.17096329 -0.10382556 0.22535524 -0.23436199
0.07663352 -0.2701487 0.018512873 -0.19490567 0.24366522 0.0067491843 -0.23256534 -0.15093282
-0.07377818 0.10303874 -0.18475942 -0.06359176 -0.06698589 -0.051387887 -0.047791846 0.043521535
0.25347686 0.024458041 -0.016152952 0.14643659 0.16489765 0.13210459 0.123869196 -0.07862524
-0.11075462 -0.1687866 -0.07003643 0.032858785 0.0005836267 0.120266624 -0.1829731 -0.10626193
0.08420255 0.27306813 0.20062026 -0.21973932 0.15384501 0.08774652 0.031120447 -0.03638605
0.052999582 0.15650524 -0.18902948 0.035830047 0.01685266 0.14044052 0.24677806 0.053805016
0.117806986 0.16724132 0.23015971 0.04755913 0.24756618 -0.18096727 0.22966158 -0.10857934
0.11572518 -0.028742217 0.101217546 -0.20012616 -0.15487075 -0.256572 -0.09941572 0.13862593
-0.04293133 -0.1522615 -0.109714836 -0.14429237 0.1639961 0.13842759 -0.2665021 -0.23946534
0.088145085 -0.23625979 0.2873691 -0.29028854 0.2986455 -0.13512799 -0.171086 0.08265218
-0.18017998 -0.15172985 0.010023811 -0.2209584 -0.09844466 0.124624014 0.11784094 0.06355731
0.06924514 0.13434699 0.19707525 -0.25230876 0.07784205 -0.17247437 0.27296966 0.009166952
-0.26872978 0.14403155 0.106454924 -0.055663787 -0.09855062 -0.16404407 0.19861366 0.22185528
-0.16559233 -0.036774077 -0.094008416 0.06320796 -0.042048257 -0.0765369 0.2145755 0.22825551
-0.12930208 -0.13141055 -0.2747882 -0.10866645 -0.043562647 0.22773373 0.05265144 -0.26628786
-0.25191453 0.011227894 -0.25570413 -0.19918004 -0.25391358 -0.06472176 0.004572043 0.0024722798
0.16656947 0.06643801 -0.1337683 -0.06326736 0.09980152 0.09992988 0.18834734 0.06317637
0.09662162 0.20669197 -0.054534547 -0.11790361 0.010541541 -0.1838608 -0.09716131 0.20039403
0.10120694 0.17321996 0.057800595 -0.031248914 -0.005533161 -0.12645859 0.11264262 0.019552875
-0.19787139 0.13367654 0.1540591 -0.2542449 -0.07875621 0.17818569 0.06192725 -0.11353462
0.0901635 -0.08844916 -0.03987724 0.15078288 0.25256523 0.1462826 0.23357376 0.045099676
-0.0831172 0.00259259 -0.17359062 -0.13776611 -0.18335392 -0.10262212 -0.14653899 -0.2939655
0.20851576 0.041880216 -0.22175749 0.20590262 0.1383954 -0.121475615 0.0256751 -0.13464658
0.30164373 -0.2434266 0.22488335 -0.29377744 0.076574236 -0.20841157 0.037804857 0.07659454
00000000: d7df 273e 7a92 313e f1c3 1f3e e921 9b3e
00000010: c979 08be e9dc 9e3d 4306 3f3e b694 9d3e
00000020: 6182 5d3e 1ee6 973e e706 28be b2e6 8d3c
00000030: 3129 11be 3ba4 f5bc c2c1 46be a209 86bc
00000040: 6147 24be 10c2 2e3e 9c7e 993c a0f9 eabc
00000050: ac7b e43d 163b 4b3e 4d45 f53d 3543 fe3d
00000060: c1e9 c63d d7b7 cf3d 41f2 f8bd 0d33 663e
00000070: bda6 883e 7b99 5abe d14b dc3d e1e2 103e
00000080: e112 02be 225b 3d3e ca5a 0a3c 168a 28be
00000090: 1abc 40be 063c 67bd b142 46be a1f2 03bd
000000a0: 9dc0 383e a1b6 8b3c 2302 95be b3c6 af3d
000000b0: 1072 83be 26f6 30be 5bb4 babd 3993 483e
000000c0: 7c01 2ebe 611b 3fbe 44a7 f6bd a7c7 9d3b
000000d0: d8e4 2d3e 867d 2fbe d1a9 09bd 35fe 4f3e
000000e0: ed14 7f3c 42e8 ed3c e478 863e cbf2 a43c
000000f0: 0011 2f3e 7fa2 d4bd 86c3 663e 97fc 6fbe
00000100: 09f2 9c3d ee50 8abe 4fa8 973c 5a95 47be
00000110: 6083 793e 4328 dd3b 9c25 6ebe 228e 1abe
00000120: 0419 97bd fa05 d33d 9331 3dbe 663c 82bd
00000130: e62f 89bd 1b7c 52bd 62c1 43bd a343 323d
00000140: b8c7 813e 3b5c c83c 3253 84bc 79f3 153e
00000150: eeda 283e 6d46 073e 22af fd3d 4506 a1bd
00000160: 51d3 e2bd 65d6 2cbe 436f 8fbd ef96 063d
00000170: 86fe 183a 594e f63d 4d5d 3bbe db9f d9bd
00000180: 6372 ac3d 96cf 8b3e 666f 4d3e 5803 61be
00000190: 8c89 1d3e 73b4 b33d 4ff0 fe3c 8a09 15bd
000001a0: 1716 593d e942 203e f290 41be 87c2 123d
000001b0: 970e 8a3c a4cf 0f3e 63b3 7c3e a662 5c3d
000001c0: ca44 f13d 4f41 2b3e fdae 6b3e 5dcd 423d
000001d0: fd81 7d3e 7c4f 39be 682c 6b3e d85e debd
000001e0: 5301 ed3d cc74 ebbc 254b cf3d dfed 4cbe
000001f0: 7096 1ebe 685d 83be 789a cbbd f5f3 0d3e
00000200: c3d8 2fbd 70ea 1bbe 2cb2 e0bd 61c1 13be
00000210: 98ee 273e f6bf 0d3e f772 88be 6736 75be
00000220: 6985 b43d 16ee 71be 0b22 933e b3a0 94be
00000230: 10e8 983e fe5e 0abe 2b31 2fbe 8c45 a93d
00000240: 1a81 38be 125f 1bbe e93a 243c eb42 62be
00000250: 5b9d c9bd e03a ff3d 9756 f13d 562a 823d
00000260: 65d0 8d3d 4292 093e 18ce 493e 9d2e 81be
00000270: a76b 9f3d 1f9d 30be aec2 8b3e fc30 163c
00000280: f396 89be 027d 133e 0a05 da3d b6ff 63bd
00000290: e8d4 c9bd 2bfb 27be 6161 4b3e 082e 633e
000002a0: 0991 29be 6aa0 16bd 7c87 c0bd 2d73 813d
000002b0: cb3a 2cbd 61bf 9cbd aeb9 5b3e d0bb 693e
000002c0: c467 04be 7d90 06be 0ab1 8cbe 848c debd
000002d0: bf6e 32bd 0833 693e 09a9 573d e256 88be
000002e0: f1fa 80be 33f5 373c a7eb 82be daf5 4bbe
000002f0: f600 82be d88c 84bd 14d1 953b f905 223b
00000300: 3091 2a3e a710 883d 8ffa 08be 5192 81bd
00000310: bd64 cc3d 09a8 cc3d 20de 403e 9d62 813d
00000320: 8ee1 c53d 0fa7 533e 9e5f 5fbd 7377 f1bd
00000330: 6db6 2c3c 0146 3cbe 82fc c6bd 1834 4d3e
00000340: 9645 cf3d 9360 313e 51c0 6c3d b9fd ffbc
00000350: 854f b5bb 5c7e 01be 2db1 e63d 5a2d a03c
00000360: cc9e 4abe 81e2 083e abc1 1d3e 632c 82be
00000370: f04a a1bd 4f76 363e 6ea7 7d3d d784 e8bd
00000380: a4a7 b83d d524 b5bd 5156 23bd d466 1a3e
00000390: 3b50 813e 1bcb 153e f62d 6f3e 70ba 383d
000003a0: 5a39 aabd 71e8 293b bdc1 31be 8f12 0dbe
000003b0: 21c1 3bbe 8c2b d2bd 510e 16be a582 96be
000003c0: 2885 553e 978a 2b3d 6514 63be 23d8 523e
000003d0: 86b7 0d3e 35c8 f8bd 9654 d23c cbe0 09be
000003e0: 0c71 9a3e d344 79be d247 663e ff69 96be
000003f0: f4d2 9c3d d869 55be 44d9 1a3d 99dd 9c3d

net.0.weight f4 [32, 2, 3, 3]
-0.048032608 -0.013042958 0.024510551 -0.022941642 -0.0124667855 0.04020015 -0.0385859 -0.037819337
0.024631549 0.0062012784 -0.012324376 -0.0056921165 -0.001525337 0.0051661865 -0.013724502 -0.0007471061
-0.03559505 -0.006856146 0.023593854 0.0148554705 0.00012666432 -0.008498587 -0.006127141 -0.016469982
-0.00039957327 -0.0014861558 -0.024960421 0.06485866 0.013171018 -0.021402083 -0.08276012 0.03257067
-0.06826116 0.0049645924 0.050925713 -0.05616083 0.023027193 0.0074586445 0.004067925 -0.005888931
0.014751287 0.004641638 -0.013168446 0.009558748 0.017177273 0.06469737 -0.115884766 -0.005152455
-0.034006033 0.056276303 0.09277413 -0.010297181 -0.008713306 0.058317937 -0.018803086 0.0061193933
-0.03502026 -0.029073322 -0.0062938957 -0.04382913 0.011124984 0.01435935 -0.011403113 0.031806763
0.031181786 0.003802222 0.009812468 -0.031085502 0.023032578 -0.041530438 -0.017816901 -0.02520664
0.0059277047 0.009305193 0.008811386 0.011279901 0.030912427 0.024064323 -0.040579937 -0.037857264
-0.024816956 0.022506366 0.032826137 0.025655916 -0.021270605 -0.013866335 -0.026374722 0.012511604
-0.000887365 0.010685043 -0.036283385 -0.041063882 -0.03582874 0.031073947 0.041535497 0.031490248
0.0057009985 0.008271397 -0.002705725 -0.009336248 -0.0059654126 -0.0065876115 0.023496805 0.013945411
-0.006610382 0.008446144 -0.0012442677 0.008816801 -0.006704571 -0.019999318 -0.025218552 -0.0036369835
0.0062085427 -0.009850911 -0.011490268 -0.026127424 -0.03331334 0.056699146 -0.03366694 -0.01641417
0.0048483782 0.024905795 0.021396372 -0.016687024 -0.063969165 0.050143465 -0.040974528 0.018073384
0.010623892 0.01057882 0.06564203 -0.025707018 0.010729415 -0.02020455 -0.02949109 0.001314728
-0.015537047 0.012276096 0.0004927836 -0.003489088 -0.030507851 0.006966743 -0.025894253 0.017527109
-0.027945146 0.0375342 0.0012722897 -0.04979716 0.049049597 -0.013426823 -0.027310858 0.05358607
-0.016139783 -0.000120539946 -0.024808176 0.0025706214 -0.002602722 0.015222304 0.008752998 0.008703944
-0.019470753 0.013833224 0.0075004273 -0.011657252 -0.014547907 0.0066470588 -0.0132946605 -0.009159627
0.008857353 -0.0020779618 0.013335745 -0.003913977 -0.05624082 -0.016352648 -0.017889254 0.09928137
0.06310691 0.044313792 0.014469746 0.04164997 -0.011043096 -0.0067139445 -0.001568236 -0.02256724
-0.02830497 -0.05082641 0.041569833 0.041630033 0.02241578 0.017047126 -0.0011306931 0.01603376
0.0064765643 -0.0024983573 0.012672755 -0.0027682697 -0.006436032 0.016555693 -0.0286118 0.0018212415
0.02498002 -0.0002756067 0.011768028 0.010075219 0.02391698 0.0029204788 -0.017168058 -0.026760621
-0.061134182 0.03590425 -0.0068677366 0.034581408 0.011894153 -0.04274467 -0.06241153 0.036529224
-0.0021086398 -0.0055613657 0.06313387 -0.017860098 -0.025465848 -0.042575367 -0.016085967 0.0109289875
-0.006987048 -0.003953293 0.044395898 -0.03268475 -0.03357903 0.0074465503 -0.006782969 0.0105957575
0.034437604 -0.01216174 0.028363677 0.03708901 -0.044587713 0.046026096 -0.012485682 -0.04781002
-0.02220124 -0.053314146 0.020360695 -0.010309547 -0.0014704906 -0.00547713 -0.038668025 0.008000172
-0.03740304 0.030802364 0.0050312025 -0.038007777 0.020177655 -0.034080144 -0.0021548534 -0.047281448
00000000: d7bd 44bd 22b2 55bc 5aca c83c 1cf0 bbbc
00000010: 7d41 4cbc eaa8 243d 400c 1ebd 73e8 1abd
00000020: 1ac8 c93c 1834 cb3b 2eec 49bc ef84 babb
00000030: d1ed c7ba 1d49 a93b bcdc 60bc 71d9 43ba
00000040: 1dcc 11bd 85a9 e0bb e647 c13c 5c64 733c
00000050: 32d1 0439 a83d 0bbc 2fc6 c8bb 0eec 86bc
00000060: d17d d1b9 1dcb c2ba cc79 ccbc 9ed4 843d
00000070: 41cb 573c 6c53 afbc 237e a9bd d368 053d
00000080: 82cc 8bbd 05ae a23b 7b97 503d e608 66bd
00000090: 86a3 bc3c a567 f43b 3a4c 853b eff7 c0bb
000000a0: 62af 713c e218 983b 77c0 57bc 4c9c 1c3c
000000b0: 5ab7 8c3c 0e80 843d fe54 edbd edd5 a8bb
000000c0: e949 0bbd fb81 663d 5d00 be3d 82b5 28bc
000000d0: 41c2 0ebc cade 6e3d ee08 9abc 3185 c83b
000000e0: 6771 0fbd 2d2b eebc 063d cebb 2c86 33bd
000000f0: 9145 363c 7b43 6b3c 1fd4 3abc cf47 023d
00000100: f270 ff3c b32e 793b 79c4 203c 06a7 febc
00000110: d1ae bc3c d21b 2abd c0f4 91bc 287e cebc
00000120: 313d c23b cf74 183c a25d 103c 55cf 383c
00000130: 0f3c fd3c 8b22 c53c 2637 26bd 3810 1bbd
00000140: ee4c cbbc 455f b83c b374 063d 5b2c d23c
00000150: b13f aebc a02f 63bc cd0f d8bc 79fd 4c3c
00000160: 0f9e 68ba 5210 2f3c e39d 14bd 9a32 28bd
00000170: 28c1 12bd ca8e fe3c 2021 2a3d ebfb 003d
00000180: 71cf ba3b c184 073c 8852 31bb 10f7 18bc
00000190: 8279 c3bb e4dc d7bb 5f7c c03c 4b7b 643c
000001a0: e79b d8bb b261 0a3c b216 a3ba 5874 103c
000001b0: 05b2 dbbb 9cd5 a3bc 2397 cebc 755a 6ebb
000001c0: 0871 cb3b b765 21bc ad41 3cbc 2e09 d6bc
000001d0: 9273 08bd 5d3d 683d 58e6 09bd 0277 86bc
000001e0: 25df 9e3b 3d07 cc3c 7247 af3c 3ab3 88bc
000001f0: 4402 83bd 3c63 4d3d e8d4 27bd a20e 943c
00000200: d50f 2e3c c952 2d3c 546f 863d 8697 d2bc
00000210: 6eca 2f3c 0384 a5bc 4c97 f1bc f452 ac3a
00000220: 198f 7ebc ae21 493c 262e 013a 2fa9 64bb
00000230: 9aeb f9bc 4749 e43b 2f20 d4bc 0395 8f3c
00000240: 38ed e4bc 76bd 193d f5c2 a63a 1bf8 4bbd
00000250: 3be8 483d 2dfc 5bbc 05bb dfbc 117d 5b3d
00000260: 9437 84bc 64ca fcb8 843a cbbc df77 283b
00000270: 6e92 2abb f866 793c bc68 0f3c fd9a 0e3c
00000280: 2181 9fbc bfa4 623c 25c6 f53b 0ffe 3ebc
00000290: 585a 6ebc 92cf d93b d9d1 59bc 4312 16bc
000002a0: 6e1e 113c 6a2e 08bb 2b7e 5a3c d240 80bb
000002b0: c65c 66bd fdf5 85bc 7c8c 92bc 0854 cb3d
000002c0: 323e 813d 6182 353d 8312 6d3c 2999 2a3d
000002d0: 1aee 34bc a600 dcbb 458d cdba efde b8bc
000002e0: d3df e7bc 5b2f 50bd 2145 2a3d 4184 2a3d
000002f0: 4ca1 b73c 6aa6 8b3c c433 94ba 3b59 833c
00000300: 5c39 d43b 7bbb 23bb 63a1 4f3c dc6b 35bb
00000310: 59e5 d2bb ce9f 873c 4b63 eabc b9b6 ee3a
00000320: e6a2 cc3c 4e7f 90b9 b0ce 403c 8812 253c
00000330: 8bed c33c 8165 3f3b 07a4 8cbc 1739 dbbc
00000340: d667 7abd 5610 133d c00a e1bb 3ca5 0d3d
00000350: b2df 423c 0915 2fbd 3ca3 7fbd ab9f 153d
00000360: 1b31 0abb 1e3c b6bb 554c 813d 574f 92bc
00000370: c19d d0bc 8263 2ebd b8c6 83bc 7f0f 333c
00000380: 9bf3 e4bb a08a 81bb 79d8 353d 72e0 05bd
00000390: 2a8a 09bd 3102 f43b ab43 debb d499 2d3c
000003a0: 720e 0d3d 0942 47bc f15a e83c a5ea 173d
000003b0: 9ba1 36bd dc85 3c3d bf90 4cbc 71d4 43bd
000003c0: 60df b5bc ef5f 5abd 79cb a63c 60e9 28bc
000003d0: 7abd c0ba 7f79 b3bb 5d62 1ebd 2713 033c
000003e0: ee33 19bd 3d55 fc3c c9dc a43b 0bae 1bbd
000003f0: 9c4b a53c 9f97 0bbd 7138 0dbb 31aa 41bd

net.1.weight f4 [32]
0.9682629 0.9451486 0.96742266 0.9414503 0.9878466 0.9745496 0.99320954 0.9156938
0.9456768 0.9076898 0.98027694 0.9352703 0.9283512 0.99817765 1.0067742 0.9466319
0.9621172 1.0221643 0.9347576 1.0044056 1.0008093 0.9386767 0.9440094 0.9688157
0.95950955 0.93502027 0.96054125 0.904587 0.9006855 0.9792047 0.94434077 0.9522346
00000000: 14e0 773f 42f5 713f 03a9 773f e302 713f
00000010: 84e3 7c3f 157c 793f fb42 7e3f e96a 6a3f
00000020: e017 723f 5c5e 683f 6ef3 7a3f e06d 6f3f
00000030: 6da8 6d3f 9288 7f3f fadd 803f 7856 723f
00000040: 504d 763f 48d6 823f 464c 6f3f 5d90 803f
00000050: 851a 803f 1e4d 703f 9aaa 713f 4e04 783f
00000060: 6ba2 753f 7d5d 6f3f 08e6 753f 0393 673f
00000070: 5393 663f 29ad 7a3f 51c0 713f a6c5 733f

net.1.bias f4 [32]
-0.29747745 -0.228804 -0.3873134 -0.14114672 -0.27902552 -0.22211517 -0.16038503 -0.24448092
-0.34985164 -0.19296864 -0.18587144 -0.327252 -0.24737507 -0.1757734 -0.09915676 -0.3093927
-0.38544464 -0.40318403 -0.28334206 -0.21048921 -0.33580723 -0.24249758 -0.35621032 -0.14833184
-0.27210233 -0.31738353 -0.35787815 -0.29814947 -0.27713552 -0.14977525 -0.38170624 -0.39894465
00000000: f74e 98be 994b 6abe f14d c6be c488 10be
00000010: 6fdc 8ebe 2972 63be f93b 24be 3559 7abe
00000020: c11f b3be 9299 45be 1555 3ebe 938d a7be
00000030: e44f 7dbe f1fd 33be b312 cbbd b868 9ebe
00000040: 0059 c5be 236e cebe 3612 91be 7c8a 57be
00000050: edee abbe 4951 78be 3361 b6be 4de4 17be
00000060: ff50 8bbe 1880 a2be ce3b b7be 0ca7 98be
00000070: b5e4 8dbe af5e 19be 006f c3be 7942 ccbe

net.1.running_mean f4 [32]
0.05208541 0.020738063 -0.043195765 0.07610074 0.010163125 -0.009886984 0.090084195 -0.00052686693
-0.012320203 0.01314869 0.010368073 -0.01944459 0.033591364 0.042992014 0.02251678 0.017633239
0.02644213 0.014473919 -0.006415201 0.016843313 -0.024338242 -0.01592122 -0.018885382 0.000404497
-0.020466695 -0.0033255438 -0.009455282 -0.021515435 -0.0031417843 0.023873167 -0.009540654 0.008595148
00000000: 8357 553d dfe2 a93c 0bee 30bd b4da 9b3d
00000010: 3c83 263c 04fd 21bc 107e b83d 711d 0aba
00000020: adda 49bc 9a6d 573c dade 293c 434a 9fbc
00000030: 1997 093d 6518 303d 1c75 b83c 9573 903c
00000040: 2a9d d83c 0424 6d3c 9b36 d2bb fdfa 893c
00000050: fe60 c7bc 386d 82bc 84b5 9abc ab12 d439
00000060: c5a9 a7bc 5ef1 59bb 54ea 1abc 2341 b0bc
00000070: 65e6 4dbb a991 c33c 6750 1cbc aad2 0c3c

net.1.running_var f4 [32]
0.004982211 0.0018102996 0.0026138413 0.0036480634 0.0014214144 0.0021793114 0.005163523 0.001080609
0.0020813532 0.0015215744 0.0015565542 0.0013834183 0.0015578964 0.0036555992 0.0005672622 0.0008124214
0.0017558397 0.0020261283 0.0013172477 0.0033093363 0.0014315482 0.0016466058 0.0018041414 0.0019496889
0.0010727186 0.0005348927 0.0013797382 0.0017337666 0.0017027614 0.0005525488 0.0017458843 0.0013399977
00000000: d141 a33b 9347 ed3a fb4c 2b3b 5914 6f3b
00000010: c14e ba3a c7d2 0e3b c532 a93b 39a3 8d3a
00000020: 5067 083b 916f c73a 4b05 cc3a d153 b53a
00000030: 5432 cc3a c792 6f3b 52b4 143a adf8 543a
00000040: 3424 e63a cbc8 043b 80a7 ac3a 73e1 583b
00000050: c9a2 bb3a ecd2 d73a f178 ec3a b48c ff3a
00000060: 779a 8c3a 0b38 0c3a 55d8 b43a 8e3f e33a
00000070: 312f df3a ecd8 103a 28d6 e43a dda2 af3a

net.4.weight f4 [128, 32, 3, 3]
-0.008377925 -0.007607188 -0.0043411828 0.018379847 -0.014441467 0.0029930153 0.020523395 -0.074324265
-0.022990983 0.022146929 -0.048974384 -0.049067393 -0.038264964 0.0041544656 -0.026143609 0.016601259
0.0024809837 -0.054340746 -0.0134282755 0.06810285 -0.0081673125 0.004108804 0.029982135 -0.017147616
-0.013012247 0.033310458 -0.041124444 -0.018816788 -0.036022715 -0.011264379 -0.05120905 -0.014027792
-0.024577605 -0.00806925 0.01356409 0.021936076 -0.018650537 -0.065917574 0.022125777 0.012584331
0.057200342 0.015515484 0.02463558 -0.027246617 -0.08291948 -0.0043020463 0.021700082 -0.004387462
0.005340492 -0.004572315 -0.08074285 0.01144187 0.014921351 -0.0104858745 -0.011213048 0.009334835
0.03861648 -0.0716985 -0.037196565 0.019939767 0.008608244 -0.011735754 0.04366638 0.04341536
-0.0077625727 0.041686572 0.009676011 -0.0018574275 -0.0008311924 0.021004517 -0.036513064 -0.048521
0.04398866 -0.024084195 0.05565738 -0.005569752 -0.009975679 -0.010479857 0.012246152 -0.031373892
-0.028317463 0.017609077 0.034122664 -0.07344397 -0.00045980455 0.033937283 -0.053768523 0.011460752
-0.006674708 0.0107511245 0.068368204 0.029071817 -0.029657535 -0.009548044 0.027144166 0.019309761
0.0021045948 0.02451033 0.0045880643 0.030599318 -0.012076304 0.032254063 0.010637007 -0.05474826
0.001785243 0.016664116 0.019445647 -0.009953641 0.047321327 0.03872594 0.0014665826 0.007572011
0.019914994 0.024675386 0.019570842 0.079775244 0.01581017 0.028122175 0.054984324 -0.047060173
0.02024286 0.016309958 0.0041401978 -0.07525791 0.026599586 -0.0016284076 0.015384766 -0.005921265
-0.012091727 -0.019771976 -0.020282814 -0.017400244 -0.014115104 0.016242286 -0.015659586 0.00027221625
-0.038368545 -0.020263681 -0.014827631 -0.031033155 0.0151966885 0.014159797 -0.051387157 -0.025133742
-0.039093886 0.06441287 -0.013384004 0.041812874 -0.02481296 -0.0064362823 0.017833734 0.028427687
-0.014366696 -0.034543145 0.05278631 -0.0098562045 -0.055424385 0.044287805 -0.02137122 0.027685367
0.0038677999 0.023288466 -0.022606054 -0.08755314 0.022399403 0.013449813 -0.0015981378 -0.0030569152
0.0038796242 -0.028364904 -0.022574851 0.052231494 0.04680198 -0.0026321753 -0.018191183 -0.04167468
-0.027220814 0.008318806 0.01924193 -0.026821177 -0.08261756 0.003215359 0.02026101 0.007113064
-0.009722507 0.053550452 0.081051864 0.0029601217 -0.0134271635 -0.0018237858 -0.04249883 -0.0095320605
-0.02811141 0.0064458465 0.026972482 0.012682926 -0.0034083128 -0.031893436 -0.035455406 0.059138194
-0.018840836 0.035387903 0.04155516 -0.042708036 0.033350684 -0.015057705 0.020870926 -0.02356967
0.042089224 0.028711582 -0.008196658 -0.026975669 -0.005697686 0.005165615 -0.059360083 -0.027280126
0.019892026 0.020044718 -0.001148635 -0.0019570463 -0.010263749 0.008459143 -0.056921702 -0.01912847
0.025903536 0.0040902 0.002387056 0.012931125 0.007486477 0.023044873 -0.015753468 -0.028656064
-0.038379163 0.0038223818 -0.06295456 0.027891628 -0.05134698 -0.016623452 0.04303849 0.027267577
0.0028377122 0.0037030687 0.011179291 0.032136083 -0.041248083 0.03761263 -0.033712912 -0.035700146
-0.015980396 -0.020759173 -0.025066731 -0.018364163 0.011461144 0.006839467 -0.008437822 -0.03864688
00000000: 9043 09bc b845 f9bb 7b40 8ebb 5591 963c
00000010: e79b 6cbc 7726 443b ae20 a83c 5237 98bd
00000020: 9657 bcbc 7a6d b53c 5d99 48bd e4fa 48bd
00000030: b9bb 1cbd 2f22 883b 1f2b d6bc 5dff 873c
00000040: 0098 223b 6794 5ebd 4502 5cbc 8279 8b3d
00000050: 31d0 05bc 25a3 863b 189d f53c 2879 8cbc
00000060: 5231 55bc 8c70 083d 1b72 28bd aa25 9abc
00000070: 8e8c 13bd 3b8e 38bc 95c0 51bd d3d4 65bc
00000080: f956 c9bc e334 04bc eb3b 5e3c 49b3 b33c
00000090: 03c9 98bc cbff 86bd 1e41 b53c 832e 4e3c
000000a0: e84a 6a3d a834 7e3c 8ed0 c93c 4c34 dfbc
000000b0: b0d1 a9bd 2ef8 8cbb 5fc4 b13c b3c4 8fbb
000000c0: 4bff ae3b 5cd3 95bb 825c a5bd ae76 3b3c
000000d0: af78 743c f2cc 2bbc efb6 37bc 23f1 183c
000000e0: 502c 1e3d aad6 92bd 6d5b 18bd b958 a33c
000000f0: 9809 0d3c 5247 40bc 85db 323d 4ed4 313d
00000100: 2e5d febb 8abf 2a3d 2288 1e3c ed74 f3ba
00000110: 61e4 59ba aa11 ac3c b98e 15bd f5bd 46bd
00000120: 742d 343d 384c c5bc fef8 633d 7782 b6bb
00000130: 0871 23bc b5b3 2bbc 16a4 483c e981 00bd
00000140: 06fa e7bc e940 903c 35c4 0b3d cb69 96bd
00000150: ec11 f1b9 d201 0b3d 623c 5cbd e1c5 3b3c
00000160: 82b7 dabb 7c25 303c a104 8c3d 0528 ee3c
00000170: 5cf4 f2bc 666f 1cbc 715d de3c 812f 9e3c
00000180: 3eed 093b e3c9 c83c 7957 963b 6cab fa3c
00000190: b1db 45bc d61c 043d d746 2e3c b63f 60bd
000001a0: d1fe e93a 2f83 883c 7a4c 9f3c 9914 23bc
000001b0: 02d4 413d 179f 1e3d 593a c03a a21e f83b
000001c0: c524 a33c 0924 ca3c 0853 a03c 3461 a33d
000001d0: 5484 813c 7a60 e63c 3e37 613d 2bc2 40bd
000001e0: 5bd4 a53c 769c 853c 7faa 873b d220 9abd
000001f0: 60e7 d93c 4b70 d5ba 6310 7c3c 2c07 c2bb
00000200: 611c 46bc d7f8 a1bc 2528 a6bc f58a 8ebc
00000210: 0a43 67bc 8b0e 853c 8848 80bc 3fb8 8e39
00000220: 5628 1dbd 0500 a6bc 98ef 72bc 3e39 febc
00000230: 88fb 783c 7efe 673c 577b 52bd 47e5 cdbc
00000240: e920 20bd e5ea 833d 9548 5bbc fa43 2b3d
00000250: 8c44 cbbc 73e7 d2bb 0d18 923c 2ee1 e83c
00000260: 4a62 6bbc 1d7d 0dbd 7536 583d eb7b 21bc
00000270: ae04 63bd 2167 353d b212 afbc 6ccc e23c
00000280: ea7a 7d3b 74c7 be3c 5530 b9bc 104f b3bd
00000290: f47e b73c 9b5c 5c3c 9b78 d1ba 8756 48bb
000002a0: 4b41 7e3b 845d e8bc e5ee b8bc b1f0 553d
000002b0: 6fb3 3f3d 9380 2cbb ad05 95bc 12b3 2abd
000002c0: 2ffe debc 9a4b 083c 41a1 9d3c 16b8 dbbc
000002d0: 6533 a9bd c6b8 523b 6bfa a53c b514 e93b
000002e0: 264b 1fbc b857 5b3d 85fe a53d 9afe 413b
000002f0: 9bfd 5bbc 190c efba 4113 2ebd 5c2c 1cbc
00000300: e649 e6bc ae37 d33b 65f5 dc3c 0ccc 4f3c
00000310: 005e 5fbb b1a2 02bd b039 11bd e43a 723d
00000320: 1958 9abc e8f2 103d be35 2a3d 9fee 2ebd
00000330: ba9a 083d 98b4 76bc 81f9 aa3c 2e15 c1bc
00000340: c065 2c3d 8d34 eb3c 474b 06bc 14fc dcbc
00000350: a8b3 babb 5244 a93b 8f23 73bd 927a dfbc
00000360: 9af4 a23c d234 a43c cc8d 96ba ca41 00bb
00000370: 4929 28bc 3898 0a3c bb26 69bd 4fb3 9cbc
00000380: a733 d43c 1607 863b 2770 1c3b 12dd 533c
00000390: 1f51 f53b 9ac8 bc3c 6b0d 81bc 1fc0 eabc
000003a0: 7833 1dbd ed80 7a3b 52ee 80bd fc7c e43c
000003b0: 3651 52bd e82d 88bc 2149 303d 4160 df3c
000003c0: e9f8 393b 2faf 723b 5829 373c 20a1 033d
000003d0: c0f3 28bd b30f 1a3d 8d16 0abd 513a 12bd
000003e0: 52e9 82bc 240f aabc bf58 cdbc 7170 96bc
000003f0: 86c7 3b3c 9c1d e03b ca3e 0abc 314c 1ebd

net.5.weight f4 [128]
1.0006719 0.94523036 0.9775042 1.0061682 1.0348774 0.97766817 1.028309 1.0403901
1.0124333 0.9860252 0.9666328 1.0485524 0.9140323 0.9513454 1.0723069 0.97363746
0.9945466 0.992785 1.0015517 0.9890549 1.0505793 1.049651 1.0613776 1.0523432
0.98752105 1.0309083 1.0818465 1.0092508 0.9790673 1.0249768 0.9881466 1.0415969
1.0042162 0.9921939 0.9833116 1.0291675 1.017822 0.9564127 1.1151294 1.0160327
1.0074458 1.0045791 1.1055466 1.0138137 0.957756 0.9680357 0.9540585 0.9906998
1.028856 1.0096741 1.0267107 1.0177829 0.9647947 1.0085318 1.0090307 0.99615014
1.0250524 1.0065303 1.0175564 1.0662574 0.97975415 1.0025698 1.0573676 0.9566887
1.0158533 1.0523275 0.99048585 1.0230757 0.9845613 1.0186824 0.9912415 1.0070379
1.0023655 0.9369777 1.0891479 1.0098354 1.0482463 1.0567988 1.012053 0.9770469
1.0244579 1.0091302 0.9582557 1.1239603 0.98449886 1.0510632 1.0288155 0.987677
0.99046075 0.95688385 0.9359635 1.0040298 0.94565016 0.99256694 0.99252516 1.0152448
0.95068866 1.0115603 0.99906975 1.0446101 1.0439374 1.039467 1.0434927 1.0532943
0.98315483 1.0015732 0.9847849 0.9948502 1.013457 1.0098059 1.043032 1.0030246
1.0404524 0.9581795 1.0585247 1.0149611 0.9963868 0.9728589 0.98708993 1.0171198
0.99221647 1.0257204 0.9781674 1.0385355 1.0387475 1.054791 0.9638883 1.0114392
00000000: 0416 803f 9efa 713f b73d 7a3f 1fca 803f
00000010: dd76 843f 7648 7a3f a19f 833f 812b 853f
00000020: 6a97 813f 266c 7c3f 3f75 773f f736 863f
00000030: 05fe 693f 5f8b 733f 5a41 893f 4e40 793f
00000040: 9b9a 7e3f 2827 7e3f d932 803f b432 7d3f
00000050: 6279 863f f75a 863f 39db 873f 2fb3 863f
00000060: 2ece 7c3f cef4 833f f279 8a3f 212f 813f
00000070: 28a4 7a3f 7132 833f 2df7 7c3f 0c53 853f
00000080: 288a 803f 6b00 7e3f 4fba 7b3f c3bb 833f
00000090: fe47 823f 76d7 743f 8fbc 8e3f 5c0d 823f
000000a0: fcf3 803f 0c96 803f 8d82 8d3f a6c4 813f
000000b0: 7f2f 753f 30d1 773f 2e3d 743f 819e 7d3f
000000c0: 8eb1 833f 003d 813f 426b 833f b646 823f
000000d0: c9fc 763f 9217 813f eb27 813f b203 7f3f
000000e0: eb34 833f fcd5 803f 4a3f 823f 1f7b 883f
000000f0: 2bd1 7a3f 3554 803f d257 873f 8de9 743f
00000100: 7b07 823f abb2 863f 7b90 7d3f 25f4 823f
00000110: 360c 7c3f 2f64 823f 01c2 7d3f 9ee6 803f
00000120: 834d 803f c5dd 6f3f 3369 8b3f 4942 813f
00000130: ef2c 863f 2f45 873f f48a 813f bf1f 7a3f
00000140: 7021 833f 2e2b 813f 3f50 753f eedd 8f3f
00000150: 1e08 7c3f 3d89 863f 3ab0 833f 66d8 7c3f
00000160: d68e 7d3f 57f6 743f 4e9b 6f3f 0c84 803f
00000170: 2116 723f de18 7e3f 2116 7e3f 8bf3 813f
00000180: 5560 733f cf7a 813f 09c3 7f3f c9b5 853f
00000190: be9f 853f 410d 853f 2b91 853f 59d2 863f
000001a0: 09b0 7b3f 8d33 803f dd1a 7c3f 81ae 7e3f
000001b0: f5b8 813f 5241 813f 1382 853f 1c63 803f
000001c0: 8b2d 853f 404b 753f bd7d 873f 3fea 813f
000001d0: 3513 7f3f 480d 793f edb1 7c3f fb30 823f
000001e0: e601 7e3f ce4a 833f 2e69 7a3f bbee 843f
000001f0: aef5 843f 6403 873f 62c1 763f d776 813f

net.5.bias f4 [128]
-0.04761 -0.08697197 -0.056347888 -0.006231996 -0.12623201 -0.02150139 -0.03942611 -0.21922089
-0.19769873 -0.18651351 -0.15614621 -0.19519043 -0.22545548 -0.176709 -0.09257615 -0.22716483
-0.12497748 -0.18055733 -0.05167484 -0.16475756 -0.084829785 -0.21847975 -0.20182279 -0.17447715
-0.09265037 -0.20343122 -0.19839336 -0.25766736 -0.22179179 -0.048702113 -0.15398167 -0.15887226
-0.18868123 -0.14898965 -0.17994434 -0.1590423 -0.12770426 -0.1949453 -0.2629626 -0.14611778
-0.11680011 -0.07119938 -0.06912277 -0.039629634 -0.24260724 -0.044353068 -0.15393017 -0.25031304
-0.020239726 -0.19073245 -0.03209463 -0.19440581 -0.2060214 -0.15388666 -0.11469488 -0.17901099
-0.10482764 -0.17005529 -0.20110714 -0.2213085 -0.1758603 -0.06626093 -0.18377864 -0.23011845
-0.013479863 -0.017019397 -0.2737097 -0.087145776 -0.14729975 -0.1859253 -0.22960722 -0.19541742
-0.1440698 -0.22958672 -0.19374628 -0.23573966 -0.021716012 -0.18305205 -0.1647764 -0.2480082
-0.18622021 -0.05751995 -0.18972014 -0.20736818 -0.16783734 -0.18087342 -0.16463739 -0.008331234
-0.17658849 -0.0776474 -0.1517694 -0.22217438 -0.21736754 -0.20011316 -0.16449822 -0.2425827
-0.15410072 -0.19348717 -0.17910616 -0.23511158 -0.19932285 -0.17597704 -0.16514882 -0.21988536
-0.11404538 -0.14547817 -0.22591913 -0.17367242 -0.2059288 -0.15720116 -0.016764553 -0.09521361
-0.042776056 -0.141034 -0.24464959 -0.0767671 -0.08303906 -0.04115851 -0.17707928 -0.0058307676
-0.14576954 -0.013755981 -0.20973383 -0.05089307 -0.1831864 -0.049425438 -0.2303427 -0.17786127
00000000: b402 43bd 5c1e b2bd 0bcd 66bd c635 ccbb
00000010: f742 01be af23 b0bc 467d 21bd 717b 60be
00000020: 8971 4abe 66fd 3ebe cbe4 1fbe 00e0 47be
00000030: cddd 66be 34f3 34be 9198 bdbd e69d 68be
00000040: 31f4 ffbd 05e4 38be ffa8 53bd 35b6 28be
00000050: 3dbb adbd 28b9 5fbe a2aa 4ebe 23aa 32be
00000060: 7abf bdbd 4650 50be a127 4bbe faec 83be
00000070: 631d 63be de7b 47bd 5fad 1dbe 69af 22be
00000080: a735 41be be90 18be 5443 38be fcdb 22be
00000090: e8c4 02be be9f 47be 09a3 86be e69f 15be
000000a0: e534 efbd fbd0 91bd 3d90 8dbd af52 22bd
000000b0: 086e 78be 90ab 35bd df9f 1dbe 0829 80be
000000c0: c8cd a5bc 5e4f 43be a975 03bd 5112 47be
000000d0: 46f7 52be 7794 1dbe 26e5 eabd a84e 37be
000000e0: e0af d6bd f922 2ebe 08ef 4dbe b29e 62be
000000f0: b914 34be cfb3 87bd 7830 3cbe 2ca4 6bbe
00000100: a5da 5cbc 436c 8bbc ae23 8cbe 7c79 b2bd
00000110: bfd5 16be 3463 3ebe 281e 6bbe 811b 48be
00000120: 0987 13be c818 6bbe 6d65 46be bd65 71be
00000130: c7e5 b1bc ff71 3bbe 25bb 28be ddf5 7dbe
00000140: 83b0 3ebe 0a9a 6bbd ff45 42be 5358 54be
00000150: 8ddd 2bbe e236 39be b496 28be ba7f 08bc
00000160: 9dd3 34be 9a05 9fbd 7069 1bbe ae81 63be
00000170: 9995 5ebe 77ea 4cbe 3972 28be 9967 78be
00000180: 94cc 1dbe 8021 46be 9b67 37be 17c1 70be
00000190: 4a1b 4cbe 5333 34be c61c 29be a129 61be
000001a0: a090 e9bd 3bf8 14be 5857 67be 2fd7 31be
000001b0: 00df 52be 57f9 20be d155 89bc 5aff c2bd
000001c0: f235 2fbd 386b 10be 6c85 7abe 1238 9dbd
000001d0: 6210 aabd d395 28bd 4554 35be 0610 bfbb
000001e0: 9c44 15be c460 61bc 77c4 56be 4075 50bd
000001f0: 3795 3bbe 5472 4abd f5de 6bbe 4421 36be

net.5.running_mean f4 [128]
-0.0731881 -0.13826342 -0.21003872 -0.06473586 -0.18124175 -0.17026427 -0.16208084 -0.12099038
-0.061540846 -0.16740973 -0.06007617 -0.124553725 -0.028262395 -0.10716062 -0.044252418 0.1828432
0.15761788 -0.11837819 -0.23048107 -0.06586336 -0.26007771 -0.3527245 -0.28929308 -0.06228353
0.030244688 -0.35113034 -0.32400107 -0.1565798 -0.1626625 -0.27623624 -0.107371405 -0.011445382
0.05543577 -0.23542461 0.006514018 -0.17103128 -0.28555748 -0.10679104 -0.20090811 -0.066390336
-0.12572017 -0.21202286 -0.26248854 -0.056830894 -0.03627599 -0.36116543 -0.1604318 -0.22610094
-0.07413629 -0.17091997 -0.18117313 -0.20217231 0.02686475 -0.15372097 -0.22508718 -0.17179474
-0.48398122 -0.14365718 -0.2791904 -0.12719247 -0.14339235 -0.33646414 -0.20442699 -0.16234256
0.0067946916 -0.05367897 -0.21798314 -0.5394733 0.116495125 -0.37128478 -0.3140373 -0.16631728
-0.12727687 -0.1718902 -0.36860615 -0.08372435 -0.17403844 -0.19588038 -0.13237953 -0.1410861
-0.19164987 0.0019803331 -0.022485843 -0.32264382 -0.02951015 -0.11770219 -0.18200682 -0.11358823
-0.056785807 -0.28099966 -0.24529672 -0.1380275 -0.10807633 -0.051889516 -0.17248534 -0.09970652
-0.08125109 -0.0940525 -0.18896466 -0.1950191 -0.280927 -0.07077139 -0.15170656 -0.18513228
-0.06097977 -0.0112899495 0.17820796 -0.39243105 -0.27654955 -0.013311406 -0.022694409 0.15179181
-0.06386029 -0.083565876 -0.29544827 -0.10591321 -0.34147766 0.0144614065 -0.104174234 0.04310218
-0.16282228 -0.15465291 -0.2931275 -0.31853563 -0.09896356 -0.2646592 -0.057870913 -0.32812542
00000000: a4e3 95bd ed94 0dbe 6414 57be 3c94 84bd
00000010: 7097 39be c259 2ebe 85f8 25be cec9 f7bd
00000020: 4112 7cbd 756d 2bbe 6e12 76bd 0616 ffbd
00000030: 8a86 e7bc 0777 dbbd 0642 35bd 3f3b 3b3e
00000040: 9566 213e 4470 f2bd 3b03 6cbe 5fe3 86bd
00000050: e828 85be 4e98 b4be 391e 94be 041d 7fbd
00000060: b5c3 f73c 5bc7 b3be 78e3 a5be 7556 20be
00000070: 0091 26be d66e 8dbe 8ae5 dbbd 6985 3bbc
00000080: 9e10 633d 2613 71be 8b73 d53b d322 2fbe
00000090: 9734 92be 43b5 dabd dbba 4dbe a8f7 87bd
000000a0: cabc 00be 851c 59be e664 86be 83c7 68bd
000000b0: 2296 14bd adea b8be 3c48 24be 0187 67be
000000c0: c4d4 97bd a505 2fbe 7385 39be 4206 4fbe
000000d0: 7713 dc3c 0869 1dbe 417d 66be f6ea 2fbe
000000e0: 63cc f7be de1a 13be 0bf2 8ebe be3e 02be
000000f0: 72d5 12be 0745 acbe 4f55 51be 213d 26be
00000100: 01a6 de3b 7bde 5bbd f936 5fbe ec1a 0abf
00000110: ff94 ee3d 0a19 bebe 7fc9 a0be 144f 2abe
00000120: de54 02be fc03 30be f2b9 bcbe ac77 abbd
00000130: 2237 32be de94 48be 808e 07be e078 10be
00000140: dd3f 44be 7ac8 013b 3b34 b8bc 9231 a5be
00000150: 45bf f1bc d90d f1bd ff5f 3abe f2a0 e8bd
00000160: 3c98 68bd 30df 8fbe 102f 7bbe 1557 0dbe
00000170: 1f57 ddbd 1a8a 54bd ff9f 30be ef32 ccbd
00000180: f966 a6bd 999e c0bd f47f 41be 16b3 47be
00000190: aad5 8fbe 97f0 90bd f758 1bbe 5193 3dbe
000001a0: ecc5 79bd 7bf9 38bc 267c 363e b9ec c8be
000001b0: e797 8dbe 1518 5abc a0e9 b9bc 506f 1b3e
000001c0: 2fc9 82bd 9624 abbd ff44 97be 06e9 d8bd
000001d0: 29d6 aebe 89ef 6c3c 4d59 d5bd e98b 303d
000001e0: e2ba 26be 555d 1ebe cf14 96be 1a17 a3be
000001f0: 68ad cabd 6981 87be 0d0a 6dbd 0e00 a8be

net.5.running_var f4 [128]
0.17691094 0.14530592 0.23876981 0.22658277 0.2936882 0.24262832 0.1536335 0.22575605
0.21855442 0.1896868 0.23293969 0.18472186 0.27108175 0.26733214 0.24057132 0.19247895
0.24197936 0.31093067 0.2813061 0.23123363 0.21097724 0.25734392 0.23818026 0.30741626
0.20748265 0.40977478 0.26649714 0.24298948 0.28953072 0.18964761 0.19864862 0.18358213
0.27673256 0.22220227 0.20994692 0.23683506 0.29991624 0.26348358 0.23911178 0.25177932
0.20339389 0.29264078 0.2881478 0.20563771 0.32077587 0.2641071 0.17078191 0.21141668
0.20706701 0.2827467 0.1757339 0.25007161 0.18391575 0.20200548 0.19970454 0.22388214
0.19415982 0.17460212 0.30317745 0.22833139 0.24546272 0.20356238 0.27583405 0.20682041
0.1699432 0.24316952 0.24058193 0.29062873 0.19287919 0.31152645 0.20944177 0.23398256
0.2553316 0.27039132 0.4375296 0.30113703 0.266809 0.35463 0.2411485 0.2160273
0.22417498 0.21299171 0.2464272 0.3793922 0.24045126 0.22320013 0.27718997 0.21683452
0.19779412 0.26691988 0.25384408 0.28621376 0.22119373 0.25028494 0.2681799 0.30978265
0.21916983 0.2322711 0.23237008 0.26717946 0.23083314 0.29073322 0.22194672 0.2458979
0.2084885 0.18109073 0.1980562 0.17372403 0.25276136 0.25230935 0.2499276 0.22979823
0.17778616 0.22856647 0.30945918 0.20493217 0.30051082 0.18334784 0.3111321 0.20884123
0.2302793 0.35526124 0.3370511 0.20569421 0.16351521 0.25246248 0.20496911 0.34782958
00000000: 2428 353e 13cb 143e 1380 743e 5005 683e
00000010: 4d5e 963e 8f73 783e 1a52 1d3e 982c 673e
00000020: bbcc 5f3e 423d 423e be87 6e3e ba27 3d3e
00000030: 3acb 8a3e c2df 883e 5458 763e 3419 453e
00000040: 70c9 773e 4e32 9f3e 5a07 903e 82c8 6c3e
00000050: 6b0a 583e 95c2 833e 87e5 733e aa65 9d3e
00000060: 5576 543e 00ce d13e 5072 883e 3cd2 783e
00000070: 5f3d 943e fc32 423e 8b6a 4b3e f4fc 3b3e
00000080: e4af 8d3e fe88 633e 53fc 563e e484 723e
00000090: 9f8e 993e 52e7 863e b8d9 743e 38e9 803e
000000a0: 7d46 503e 03d5 953e 1c88 933e b192 523e
000000b0: bc3c a43e 0c39 873e 74e1 2e3e 9d7d 583e
000000c0: 6009 543e 2dc4 903e 96f3 333e 6309 803e
000000d0: 6954 3c3e 86da 4e3e 597f 4c3e 5c41 653e
000000e0: d5d1 463e e6ca 323e 133a 9b3e b4cf 693e
000000f0: 945a 7b3e a872 503e 1f3a 8d3e bbc8 533e
00000100: 9705 2e3e 6e01 793e 1c5b 763e 4acd 943e
00000110: 1f82 453e 6580 9f3e e777 563e 2099 6f3e
00000120: d3ba 823e bb70 8a3e e103 e03e a22e 9a3e
00000130: 309b 883e 1092 b53e a2ef 763e 4336 5d3e
00000140: 208e 653e 801a 5a3e 6957 7c3e b23f c23e
00000150: db38 763e 938e 643e d8eb 8d3e de09 5e3e
00000160: 8b8a 4a3e b9a9 883e daf7 813e 9c8a 923e
00000170: 9c80 623e 5925 803e e04e 893e d59b 9e3e
00000180: 0e6e 603e 7ad8 6d3e 6cf2 6d3e bfcb 883e
00000190: 865f 6c3e fcda 943e 0046 633e a9cc 7b3e
000001a0: 027e 553e d96f 393e 3fcf 4a3e b6e4 313e
000001b0: f069 813e b12e 813e 05ed 7f3e 3a50 6b3e
000001c0: 930d 363e 540d 6a3e 6f71 9e3e bdd9 513e
000001d0: 8edc 993e 89bf 3b3e b54c 9f3e 7ada 553e
000001e0: 56ce 6b3e cde4 b53e f691 ac3e 81a1 523e
000001f0: 8870 273e c342 813e 6ce3 513e b816 b23e

net.9.weight f4 [1, 6272]
0.02238305 0.026455779 0.035650767 0.026876373 0.023145145 0.023844099 0.025315473 0.0075841015
0.0020585628 -0.01219328 0.018690627 0.015310223 0.015077756 0.032533213 0.015312281 0.011846169
0.03719815 0.011764109 -0.00015727457 0.0069613243 -0.00051936746 0.02250385 0.02111521 -0.010187777
0.025228042 -0.008032409 0.011247704 0.024318727 0.011464423 -0.014191686 -0.003457295 -0.004949251
-0.0085034 0.002493383 0.01672336 0.010423049 0.026222413 0.030174958 -0.0113935415 0.01409823
-0.0039360933 -0.0077541815 0.018157536 0.009771488 -0.024608284 0.013075779 0.011398664 0.048084326
-0.0033396408 0.007814754 -0.0064036925 0.017677622 0.001523174 -0.010328368 0.020955313 0.02932694
0.004234924 -0.011622543 0.10029305 0.029810507 0.010999787 0.0028556136 -0.008703804 0.0024691597
0.011536142 0.034207758 0.00713098 0.016199345 0.006496092 0.0038473068 0.0076707383 0.06688179
-0.002560416 -0.0029637327 -0.0067642643 0.013347975 -0.054954316 0.013009934 0.018763464 -0.0034390928
0.007707308 0.004541769 0.0036984384 0.004120658 0.011670367 -0.0029003974 -0.00633403 -0.0016794028
0.0038014322 0.038447373 -0.01774735 -0.00028543457 -0.0053622415 -0.02148942 -0.0034001276 0.028433776
-0.015777802 -0.014462538 0.0015473794 0.008618594 0.0062318966 -0.005110215 0.0043614176 0.007715569
0.006066299 0.013716312 0.01452154 -0.005250087 0.0020953638 0.0047838837 -0.0050551468 0.0017863086
0.010496404 0.005091245 -0.0030255592 0.01596867 -0.004378994 -0.022652648 -0.007266975 -5.1132807e-05
0.023839965 -0.029586012 0.008519383 -0.0015104277 0.021538332 0.010677039 0.0115608685 -0.007508735
-0.014567371 0.032942567 0.02951919 0.023947727 0.009945453 0.0091807535 0.04072764 -0.007278524
0.0021278316 0.023615893 -0.002503219 0.007854434 0.0020191937 -0.0019072719 -0.006293297 0.059512243
0.031570885 0.038280457 0.0066536446 0.051403485 0.02666045 0.025647048 0.02507835 0.02714197
0.12402034 0.044098713 0.03323354 0.03053541 0.003913188 0.009953645 0.0009114272 -0.00063188927
0.0076179486 0.038011756 0.010932548 0.013284854 0.006385824 -0.0070843515 0.0047594616 0.031438872
0.02821882 -0.0066391723 0.008808174 0.021094536 0.012493001 -0.02814312 0.041885227 0.038535424
0.015348781 0.019120714 -0.018958192 0.008297879 -0.025448047 0.016898764 0.023100534 -0.007417857
0.006423319 0.023457188 -0.013394354 -0.025845744 0.02638324 0.034894306 0.029365195 -0.04006192
0.06413484 -0.0022145344 0.011848794 0.006883094 -0.014001984 -0.014157405 -0.00076542416 0.0046700723
0.0067888866 -0.014018252 -0.01582604 -0.00639721 0.0012977229 0.004280799 0.012103189 0.054006197
0.030070884 0.01029283 0.00022741096 0.011424171 0.033568177 -0.022044366 -0.050762523 0.0010694772
0.014871069 0.0012188705 0.01205495 0.01782805 0.010055022 -0.005099447 -0.012236919 0.0076188003
0.0017693746 0.0117983585 0.008769973 -0.018532978 -0.022768842 0.036307443 0.020968935 -0.0015165375
0.019726519 0.025446596 -0.0076578557 -0.024058048 -0.029460741 0.02545213 0.00413045 0.0027171462
-0.01436105 0.036464274 0.044580627 0.00121779 0.0043818243 0.016415395 0.0077944957 0.009075686
0.014141109 0.020870239 0.013229057 -0.0026306908 0.01910371 0.007585639 0.028253006 0.025904482
00000000: a85c b73c cab9 d83c 8a06 123d d72b dc3c
00000010: e39a bd3c b354 c33c 6562 cf3c 0e84 f83b
00000020: f4e8 063b 53c6 47bc 161d 993c bbd7 7a3c
00000030: b108 773c 8c41 053d 5de0 7a3c 6f16 423c
00000040: 165d 183d 40be 403c 12ea 24b9 d21b e43b
00000050: 2926 08ba fe59 b83c cef9 ac3c a2ea 26bc
00000060: 0aab ce3c 5d9a 03bc 4a48 383c 1138 c73c
00000070: 46d5 3b3c 3f84 68bc c993 62bb 542d a2bb
00000080: d851 0bbc 0668 233b 6eff 883c 70c5 2a3c
00000090: 63d0 d63c 7931 f73c faab 3abc 43fc 663c
000000a0: 58fa 80bb ca16 febb 1dbf 943c 9718 203c
000000b0: 5097 c9bc cb3b 563c 76c1 3a3c 12f4 443d
000000c0: e0dd 5abb 7409 003c 11d6 d1bb a9d0 903c
000000d0: 3da5 c73a 5138 29bc 7aaa ab3c 0d3f f03c
000000e0: 1ec5 8a3b 7b6c 3ebc 7166 cd3d 2a35 f43c
000000f0: 7338 343c 3f25 3b3b 669a 0ebc a0d1 213b
00000100: 1602 3d3c 6f1d 0c3d ffaa e93b 7db4 843c
00000110: 2bdd d43b 1923 7c3b d15a fb3b 52f9 883d
00000120: a7cc 27bb 2f3b 42bb c3a6 ddbb 77b1 5a3c
00000130: c717 61bd 9e27 553c d6b5 993c 6762 61bb
00000140: 968d fc3b 1fd3 943b 8061 723b 9606 873b
00000150: 1135 3f3c 9814 3ebb b28d cfbb 681f dcba
00000160: 7321 793b fe7a 1d3d e462 91bc 61a6 95b9
00000170: beb5 afbb 950a b0bc add4 5ebb f3ed e83c
00000180: 7340 81bc 48f4 6cbc 70d1 ca3a 0135 0d3c
00000190: f034 cc3b 9773 a7bb 39ea 8e3b e2d2 fc3b
000001a0: cec7 c63b 62ba 603c c1eb 6d3c ec08 acbb
000001b0: 5f52 093b 20c2 9c3b a5a5 a5bb 9222 ea3a
000001c0: 1cf9 2b3c 75d4 a63b 7648 46bb bad0 823c
000001d0: aa7d 8fbb 0c92 b9bc ce1f eebb 6f77 56b8
000001e0: 084c c33c 5d5e f2bc e294 0b3c 8bf9 c5ba
000001f0: 2871 b03c bfee 2e3c cc69 3d3c d60b f6bb
00000200: fcab 6ebc c9ee 063d 3ad2 f13c 062e c43c
00000210: 41f2 223c df6a 163c 07d2 263d af80 eebb
00000220: 1773 0b3b 1e76 c13c 0c0d 24bb e2af 003c
00000230: 7354 043b 6dfd f9ba 0038 cebb 1cc3 733d
00000240: 7950 013d f8cb 1c3d d106 da3b 768c 523d
00000250: 0467 da3c c219 d23c 1d71 cd3c d658 de3c
00000260: 60fe fd3d daa0 343d e41f 083d 6525 fa3c
00000270: 333a 803b 9d14 233c d8ec 6e3a 5fa5 25ba
00000280: fc9f f93b 37b2 1b3d 6e1e 333c b7a8 593c
00000290: 2d40 d13b d923 e8bb 42f5 9b3b 0cc6 003d
000002a0: 282b e73c 6a8d d9bb 2950 103c 73ce ac3c
000002b0: 72af 4c3c 678c e6bc d88f 2b3d 52d7 1d3d
000002c0: 7479 7b3c 0ba3 9c3c 364e 9bbc d4f3 073c
000002d0: 6c78 d0bc 476f 8a3c 553d bd3c 7f11 f3bb
000002e0: b57a d23b 4a29 c03c fe73 5bbc 74ba d3bc
000002f0: aa21 d83c 55ed 0e3d 478f f03c f817 24bd
00000300: 2159 833d b921 11bb 7221 423c 948b e13b
00000310: 9468 65bc 76f4 67bc bfa6 48ba 6807 993b
00000320: 4f75 de3b cfac 65bc 9da5 81bc b09f d1bb
00000330: 5b18 aa3a f245 8c3b 744c 463c 9a35 5d3d
00000340: 3757 f63c 42a3 283c 2a75 6e39 722c 3b3c
00000350: c97e 093d 6396 b4bc 5dec 4fbd b32d 8c3a
00000360: c9a5 733c 82c2 9f3a 2082 453c 210c 923c
00000370: d2bd 243c 4319 a7bb 5c7d 48bc 21a7 f93b
00000380: 5cea e73a e74d 413c efaf 0f3c 79d2 97bc
00000390: b985 babc 1db7 143d 0bc7 ab3c 8ec6 c6ba
000003a0: 8299 a13c 6175 d03c c0ee fabb 6215 c5bc
000003b0: a757 f1bc fc80 d03c ba58 873b 2612 323b
000003c0: 9c4a 6bbc 905b 153d 2d9a 363d 409e 9f3a
000003d0: 6895 8f3b 9479 863c f868 ff3b 30b2 143c
000003e0: 1cb0 673c 10f8 aa3c b0be 583c ab67 2cbb
000003f0: 627f 9c3c f490 f83b d972 e73c a335 d43c
